GNN/best_gin_model.pth (torch, 726509 bytes, 61 tensors)

embedding.weight f4 [100, 128]
00000000: 27a5 f63f 545f be3f 6795 663f ddc0 06c0
00000010: d5ac 2d3f 9205 9ebf 8767 30bd ba65 cdbf
00000020: ff8b 40bf 5a09 d33f f6f2 c8be 63a9 b3bf
00000030: 6d56 3abf cc36 0fbf a1d2 44bf 9f2f 433f
00000040: 7137 d23f 7b6d 23be e2aa febe d711 e13e
00000050: e214 42bf 5006 8a3f 4301 4d3f 931e d73f
00000060: 59ba a33f 2ff1 a53f 8847 1c3f b0d8 aa3f
00000070: ed2e 6dbe 000c 2b3d 79ce 80be b01f 5c3f
00000080: 013d b1bf 5509 5fbf 0aba 64be 7dd2 db3f
00000090: 3444 a33e 8d5a d9be 6087 9c3e b24b 46bf
000000a0: 875e c7bf 02e2 7e3f a539 61bf 81e4 19bf
000000b0: 6517 a3bf b6db 0740 1f09 9ebf d9cf f9be
000000c0: 4ef0 69bf af7b 28bf fbca 9f3d 679b 063f
000000d0: 0dda f9be c97e 983f ce62 50bf 076a 3cbf
000000e0: a09d b3bf bf78 133d 5f00 82bd 19f5 2c3f
000000f0: fb4e c8bd a81b ec3f ec9e 97bf 2518 b13f
00000100: 24fa b83f db3d 5b3f f4f4 0d40 2dee 053f
00000110: ac7b b13e 4111 4abe cdfc 86bf 5895 a33f
00000120: ca52 30be 0017 063f 47ec 673d 7d43 da3e
00000130: 8833 133f 0948 24bf a035 0dc0 ab34 40bf
00000140: 4d10 323c ac6f adbe 669b abbf d8da 15bf
00000150: a143 093f ab4d 063f e512 923f 4b88 533d
00000160: a373 3e3f 3792 f6be e554 86bf 1d99 1a3f
00000170: 2a74 dcbf a9e8 53bf 8bd7 aa3f 7592 f73e
00000180: 609c 20c0 46db f93e afda 483f 8dad ea3c
00000190: 8a08 243f b44f 153f 0e91 883f 837a e6be
000001a0: c1b6 3dbe ceb4 403f 6a3c cf3e cabf 363e
000001b0: 38a2 873e 2ef7 a23f 49d1 abba f071 9bbe
000001c0: ee7f babf 2395 d1bd 1862 19bf bd40 f43e
000001d0: c0e6 393f d4ad ba3d 8e33 c7be 8925 073f
000001e0: c1d6 4fbc cc9d 763e 5ab7 073e 46a5 433f
000001f0: 4729 8c3f 3006 ae3e c94f 383f 05a4 d23e
00000200: 11e2 d83f fd6f 643f 10dd babf 42f7 8cbf
00000210: 1ab4 2abe 824b cf3f 21fa 1e3f ec98 0f3f
00000220: ab5b 8e3f 1ad4 07bd 0b42 e1bf d0bc 613f
00000230: 5def cbbe 876d 873f f162 1fbf a5d0 113f
00000240: 1c62 6dbf 3964 673f 5173 d53f 9021 c13f
00000250: 5ae7 a13e 1a57 9abe f73a 0fbf cc37 353e
00000260: 63aa 903e e5ab 803f 6703 d0be 35cb cc3f
00000270: 0712 15c0 365c a8be c0fd 8fbf f735 1e3f
00000280: e425 dabf 694e 9f3e 6fc0 b93c d92d c2be
00000290: e938 923e 6938 09bf c57d 5c3e a84d 8ebf
000002a0: 7b7d bcbf f77b a83f c529 9c3f 83dd 2c3d
000002b0: f3f2 c0bf 9f24 263f 842b 2b3f 6652 f83f
000002c0: 3c23 bbbd 97c1 643d a392 28bf 3f0d 28be
000002d0: 6cf2 6bbf ef04 ccbf 8d3d 82bf de89 0fbf
000002e0: a638 f2be ba3e b7bf e8cd f1bf 2058 6f3e
000002f0: 2a83 6d3f 0a3d fabe 16a4 1f3f 8811 033f
00000300: b860 d93f c9dd 6abf 2ce7 753f 289f 7ebe
00000310: 65cb 94bf b0ab 9e3e 8b1a e23e c70c a73f
00000320: 1463 e53e 371e 0540 64bd 00bf d464 6fbf
00000330: bc8a 603e 69e8 823f ad6f 9f3f 7431 ed3e
00000340: 6dc6 2ebf e81b 6bbf 400a d4be d4e4 19bf
00000350: 9a25 593d e1e3 f83e 1f4a 3fbe d38d 12c0
00000360: d755 dabe 2378 7f3f f25c c9bf 03e0 a73f
00000370: 678d b63e c13a cdbe 5d23 783f 22e7 ca3f
00000380: 2606 23be 89fd c03f fecf 423e 61a4 84bf
00000390: f9ad 0ebf 2758 943d e43e e83e de42 eb3f
000003a0: a949 32be 7536 67bf de2c ecbf 0a6f 80bf
000003b0: 1681 8c3d 09cc ed3d 5f36 323e 089e ef3e
000003c0: fc57 37bf de6c 2b3e b99f 15bf c6c2 c53e
000003d0: 82c2 57bf b808 e6bd 45d8 8ebe 0277 bb3f
000003e0: 86d4 9c3f a308 14bf 24e7 413f 3e45 0e3f
000003f0: d280 113f e1f8 0e3f d066 d43e 12f5 433e
1.926915 1.4872842 0.9007172 -2.1055214 0.67841846 -1.234545 -0.04306748 -1.604667
-0.7521362 1.6487229 -0.39247864 -1.4036068 -0.72788125 -0.5594299 -0.76883894 0.7624454
1.6423169 -0.15959732 -0.49739748 0.43958923 -0.75813115 1.0783176 0.8008005 1.6806206
1.2791244 1.2964228 0.6104665 1.3347378 -0.23162432 0.04175949 -0.25157526 0.8598585
-1.3846742 -0.87123615 -0.22336593 1.7173611 0.31887972 -0.42451897 0.30572033 -0.7745925
-1.5575722 0.9956361 -0.87978584 -0.60114294 -1.2741514 2.122785 -1.2346534 -0.48791388
-0.913823 -0.65813726 0.07802387 0.52580875 -0.48799172 1.1913692 -0.81400764 -0.73599285
-1.4032478 0.036003824 -0.06347727 0.6756149 -0.09780689 1.844594 -1.1845374 1.3835493
1.4451337 0.8564126 2.2180758 0.5231655 0.34664667 -0.19733144 -1.0545899 1.2779951
-0.17219082 0.52378845 0.056621816 0.42629614 0.57500505 -0.64172417 -2.206398 -0.75080365
0.010868144 -0.3387426 -1.3406799 -0.58537054 0.5361882 0.5246226 1.1412016 0.05164365
0.743952 -0.48158428 -1.0494658 0.6038988 -1.722295 -0.82776886 1.3347028 0.48353925
-2.5095444 0.48800105 0.78458685 0.028647209 0.6407553 0.5832474 1.0669267 -0.45015344
-0.18526746 0.75275886 0.4047578 0.17846599 0.2649095 1.2731683 -0.0013108636 -0.30360365
-1.4570291 -0.10233524 -0.59915304 0.4770564 0.7261772 0.09115186 -0.3890652 0.5279165
-0.012685479 0.24083632 0.13253537 0.7642406 1.0950097 0.33989096 0.7199674 0.41140762
1.694399 0.8923338 -1.4598713 -1.1012957 -0.16670266 1.6194918 0.62100416 0.56092715
1.1121725 -0.03316126 -1.759828 0.8817873 -0.39831057 1.05803 -0.6226035 0.5695899
-0.9272783 0.903873 1.6675817 1.5088367 0.3162182 -0.30144578 -0.5594935 0.17697066
0.28254995 1.0052458 -0.40627596 1.5999514 -2.3292253 -0.3288285 -1.1249313 0.61801094
-1.7042813 0.3111451 0.022674767 -0.37925604 0.28559044 -0.536017 0.21532352 -1.1117449
-1.4725794 1.3162831 1.2200247 0.042203438 -1.5074142 0.6489963 0.66863275 1.9400146
-0.0913758 0.055848684 -0.6584875 -0.16411303 -0.9216678 -1.5939006 -1.0175034 -0.56069744
-0.47308844 -1.4316018 -1.8890963 0.23373461 0.92778265 -0.48874694 0.6235975 0.51198626
1.6982641 -0.9174467 0.96055865 -0.24865401 -1.1624571 0.30990362 0.44160876 1.3050774
0.44802153 2.0799692 -0.5028899 -0.93513227 0.21927923 1.0227176 1.2455956 0.46326792
-0.68271524 -0.91839457 -0.4141407 -0.6011479 0.053014375 0.48611358 -0.18680619 -2.2899063
-0.42643616 0.9979269 -1.573149 1.3115238 0.35654756 -0.40083888 0.9692896 1.5851786
-0.15920314 1.5077373 0.19024655 -1.0362664 -0.5573421 0.07243376 0.45360482 1.8379781
-0.17410912 -0.9031747 -1.8451192 -1.0033886 0.06860559 0.11611182 0.17403553 0.46800256
-0.7161863 0.16740748 -0.5844684 0.38625163 -0.8428117 -0.11232132 -0.27899376 1.4645693
1.2252357 -0.5782568 0.7574332 0.55574405 0.5683719 0.5584851 0.4148469 0.19136456

gin_layers.0.gin_conv.mlp.0.weight f4 [128, 128]
00000000: dd1c e0bd f8e0 ee3c 213c bf3d ed4b 843e
00000010: 003a 89bb 20ba bfbd 675f 38bd 476f e6bc
00000020: c6ef c4bd 6123 97bd d9f9 b03d a823 bfbb
00000030: 0624 12bd b400 2dbe dacb 3ebd 2e86 193e
00000040: a9a8 4cbd 4b8b cb3d 453d 4dbd 33b4 77bd
00000050: 2906 1fbe 88f6 053b e596 1ebd 3ad5 a7bc
00000060: 9c8a c0bd b6c2 933b 31de 83bd bf61 d3bd
00000070: bdae ba3d 9221 45bd 2a3a 96bb a2ab 28bc
00000080: eb3c 803d 4145 f0bc c11f 483d af7b 8fbc
00000090: 5297 24be 5eeb 473c 7f4e 1cbd 6caa 273e
000000a0: c38e a5bd 5370 4fbc 1ab4 a2bd ecef 77bd
000000b0: 6912 903d 2ff3 16be 7681 82bd 2286 d0bd
000000c0: 1ab4 81bc 0071 80ba 5a33 edbd 7c3f 763d
000000d0: 2e3e cbbc 53dd 1cbc 5e20 8abc a27a e93d
000000e0: bef1 273d ddc6 1ebb ea27 3e3d c1cd 8bbd
000000f0: ba8c 2c3d f40d 09be 21ee 6a3d 03fc 3ebb
00000100: a596 1abb 127d 623c 52e2 0c3e 3c68 6ebc
00000110: 01db 0f3c 93a0 acbd c83c 943d c420 e83c
00000120: 63d5 72bd 602a cbbb a32a cabc 1f50 cf3b
00000130: f3b4 e8bd 4d8c 62bd 89b3 8a3b f727 84bd
00000140: 9d64 023d 0afe 333e 3a81 0cbe fd1e c63d
00000150: 9680 12bc 77fa 43bd b58a c23c eb3e e73d
00000160: b8e0 47bd 96e4 943d d444 d4bd 2573 f83d
00000170: 8103 0ebd 7533 bdbc 59a6 003c 3f11 8cbd
00000180: 1910 86bd fba5 4d3d 951e e73c 6c50 093e
00000190: 1e06 e13b c722 253e d834 40bd 7e1a 3ebd
000001a0: f84e 823d 4fc0 1a3e 31c4 463d 0cc0 7a3d
000001b0: 6db8 06be 6176 fbbd 180a ce3d a3e4 893d
000001c0: 1f7f 1fbc 8785 963d 29b2 8c3d c594 a13d
000001d0: 830b fa3d f827 d53c 3574 c73c e7a4 94bd
000001e0: 415e aebd b7f3 f73d 5cac 1bbc b6f9 6ebd
000001f0: 86ba 053d 6268 e83c b84e b33c 0816 943b
00000200: d465 103d e723 bb3c 0598 bdbc 7802 87bd
00000210: 3383 073e 5e42 3bbe 7948 c2bd 86e7 fa3c
00000220: d38f e0bd 312c 313c a425 c5bb b375 4d3d
00000230: f898 393d 74e2 f5bd ed3f 903d 11dc b33c
00000240: 929e 173d 7432 95ba a53a 0dbe 05fc 87bd
00000250: aa7b 49bd 78ce 7bba 1fcf 853d 5747 c73d
00000260: c299 99bd b561 09be 7c09 573d f985 f9bd
00000270: 19a2 bb3d b8d0 5b3d f82e ad3d def9 a6bc
00000280: 4c22 ee3d bfbd 4dbd f99a c23d 9c83 4abd
00000290: c62f abbd 4a70 c73c af46 62bd ccc9 303b
000002a0: 8ee2 c03d a666 033d d289 1e3a 4f0e d43c
000002b0: 18ae 0e3d da06 5cbd 323b 83bd 9f97 9cbd
000002c0: f922 143d f29e 983d 8fe8 7a3e 807a d43b
000002d0: ae58 253e 8f3f ea3d 975a 8b3d d67c b83d
000002e0: 82cf 94bd 015e 373e e034 b43d a6af 20bc
000002f0: 4e6e 9cbd 5da2 dc3c 12f8 d9bc 4099 3dbd
00000300: ee9f 28be 4942 173e f525 aabd c4bd 92bd
00000310: 624c 123e 3d82 7dbc 8a00 96bd 20cf 1abe
00000320: b165 a8bd 4bb5 c7bd 6e76 1e3e 7d7c 543e
00000330: 2ddb f63c ddc5 9fbd f01f eebd 4831 04be
00000340: 44e9 893d 3ae2 a53c 8a2c c53d 88aa 083e
00000350: e999 093d 6d50 a3bd 3d0f 083d d7f7 cb3d
00000360: de82 753d b07f 5bbd 7f2c 963d 98f1 18bd
00000370: 51b2 7ebd de65 d73d 83a4 9bbd bf7e 813d
00000380: d746 f53c 9e22 4e3c c67b 63bd 27ba 0dbb
00000390: c8d0 113d 9ab8 1bba 0269 30bd 1798 25bd
000003a0: c0cb 8d3c 943c 4abd 5491 b4bc dee7 d23d
000003b0: 2a7a 07be 6204 97bd 3d71 ae3b 5c63 30bc
000003c0: baca eb3d f90c ca3c e5ba 0ebd b781 103c
000003d0: 4964 483d 3e14 433d a9d8 fe3c a2db 86be
000003e0: d667 f2bd c370 5bbd f543 b73b 3352 153d
000003f0: fcd6 08bc 961c 3cbe 5318 403a 31f0 b3bd
-0.10943005 0.029160008 0.093376406 0.25839177 -0.0041878223 -0.093616724 -0.045012858 -0.028129233
-0.09616046 -0.07379795 0.08641405 -0.005833108 -0.035678886 -0.168948 -0.046581127 0.14992592
-0.049965534 0.099386774 -0.05010726 -0.060474586 -0.15529694 0.0020441134 -0.038718123 -0.020487417
-0.09401438 0.0045092953 -0.06438864 -0.10321378 0.0911536 -0.04812772 -0.0045845704 -0.010294827
0.06261619 -0.029329898 0.048858408 -0.017515032 -0.16073349 0.012202112 -0.038160797 0.16373605
-0.0808387 -0.0126610575 -0.07944508 -0.06053154 0.070347615 -0.14741205 -0.06372349 -0.10181834
-0.01583295 -0.0009799302 -0.1158206 0.060119137 -0.024809923 -0.009574252 -0.016861137 0.114003435
0.041002028 -0.0024227418 0.046424784 -0.06826354 0.042126395 -0.13384229 0.057356004 -0.002914191
-0.0023588326 0.013823764 0.1375821 -0.014551219 0.008780242 -0.084290646 0.072381556 0.028335936
-0.059285533 -0.00620012 -0.024678534 0.00632669 -0.11362638 -0.055309583 0.004232828 -0.06452935
0.031834234 0.17577377 -0.13721171 0.09673879 -0.00894179 -0.047846284 0.023747781 0.112912975
-0.048798293 0.07270162 -0.103646904 0.12131337 -0.03467131 -0.023095826 0.00785216 -0.06839227
-0.06546039 0.05020712 0.028212825 0.13409585 0.0068671843 0.16126548 -0.046925396 -0.046411984
0.06362718 0.15112422 0.048526946 0.061218306 -0.1315629 -0.12278438 0.10060519 0.06733062
-0.009734898 0.07349687 0.06869919 0.07889704 0.12209227 0.026020035 0.024347404 -0.07258015
-0.08514071 0.12107032 -0.009501543 -0.05834361 0.032648586 0.028370086 0.021888122 0.004519228
0.03525336 0.022844268 -0.023143778 -0.06592268 0.13233642 -0.18287036 -0.09486479 0.030627977
-0.10964932 0.010813759 -0.00601645 0.050161075 0.045311898 -0.12006083 0.07043443 0.021955522
0.03701646 -0.0011382834 -0.13791902 -0.06639866 -0.0491902 -0.00096056564 0.06533646 0.09730404
-0.0750003 -0.13416179 0.05249928 -0.121837564 0.09161777 0.053665847 0.08456224 -0.020382818
0.11627635 -0.050229784 0.09502215 -0.04944192 -0.083587214 0.024345536 -0.05524319 0.002697575
0.09418212 0.032080315 0.00060477585 0.02588573 0.034833997 -0.05371747 -0.06407775 -0.07646107
0.036166165 0.074521914 0.24502777 0.0064843297 0.1614711 0.11437904 0.06804388 0.090081856
-0.072661415 0.17906953 0.087991476 -0.009807503 -0.076382264 0.02693289 -0.026607547 -0.04628873
-0.16467258 0.1477138 -0.08308021 -0.07165101 0.1428695 -0.015472946 -0.073243216 -0.15118074
-0.08222521 -0.09751376 0.15474865 0.20750614 0.030133808 -0.07801411 -0.11627185 -0.12909424
0.06733945 0.020249475 0.09627636 0.13346303 0.033594046 -0.079743244 0.033217657 0.09959381
0.059939258 -0.05358857 0.07332706 -0.037339777 -0.062181775 0.105174765 -0.075997375 0.06323003
0.029941006 0.012581496 -0.05553796 -0.0021625848 0.0355995 -0.00059402885 -0.043068893 -0.040428247
0.01730907 -0.049374178 -0.022041954 0.102981314 -0.13230196 -0.07373883 0.0053235576 -0.010765877
0.115132764 0.024664389 -0.034846205 0.008819989 0.048923764 0.047626726 0.031109171 -0.26339442
-0.118362114 -0.053574335 0.005592818 0.036455344 -0.0083520375 -0.1837028 0.00073278433 -0.08786047

gin_layers.0.gin_conv.mlp.0.bias f4 [128]
00000000: 2770 123d 4029 24bd 05d0 39bd e525 08bd
00000010: cb79 93bd 7a8c 8fbc a274 413d e84b 473c
00000020: b5ee a33c 81a6 8d3d ffa1 38bd a91b e8bc
00000030: f80f 173b 9380 423d b02e f83c 59a2 59bd
00000040: 4957 973d a77c acbc c586 923d a434 1cbd
00000050: 7dda 4c3d ce11 96bc b238 3d3c cd85 973d
00000060: 953f 8d3c 17d2 223c cdd8 d6bc 1e23 1a3d
00000070: 107b 94bc dc92 3ebb 6873 213c ab85 783d
00000080: b42e 663c 252b 63bd 7d8b 51bc 6523 ea3c
00000090: 4549 a1bd 8100 2cbd 01f2 afbc 15ae e4bc
000000a0: 7fe0 dfbc bc00 39bc c45f c33c 04eb 43bd
000000b0: a9cf 57bd a8dd 933d fca9 b53c fe8e 26bd
000000c0: 17e2 543b 2e5f 92bd 8409 563c cf94 a0bd
000000d0: 93af 9abd 6d53 a53d 536d 80bd 2719 87bd
000000e0: c6c2 c83c 2e86 76bc 75fc fd3c 61e4 913d
000000f0: 1e9d 0d3c bca2 a1bd b404 9e3a 4d56 983c
00000100: 16a2 893d 02c3 05bd c4b3 88bd 70f1 eaba
00000110: ec97 61bd 284c 0fbd 1da6 6d3d 5f21 333c
00000120: 4bad 9a3d 8a45 4dbd f004 ff3c 870a 8dbc
00000130: ffcb 98bd 6ac4 67bd 8d82 71bb 1547 493d
00000140: 9e2f 743d 8a24 97bd 316c eb3c 884b 1a3d
00000150: d2f1 24bd 1fd7 01bd 39bb 3bbd 6cf8 a4bd
00000160: fc7e a03d 130c 92bd 6af5 133d 5645 e2bc
00000170: 92f1 b0bd e810 3b3d 592d 503b 0731 adbb
00000180: dd0f 30bd e0d6 a739 975d 1e3d 98b4 a43c
00000190: 108e a9bd fd7a 8ebd 4bc7 6dbd c060 7d3d
000001a0: 7ab6 b3bb be68 06bd f690 493c 4b8b 5ebc
000001b0: 9af4 913c da96 93bd 9b76 6ebc fc29 b93d
000001c0: 9cae a13b 01a2 ad3d 1e31 793d 7eca b23a
000001d0: 9d78 953d 817b b0bc fdcf 7e3d ab32 c13b
000001e0: 7970 b3bd e86c 003d e04d 353c c52b 6fbd
000001f0: b516 593d 370f 87bd 7d4c a0bd b3a0 11bc
0.035751488 -0.0400784 -0.0453644 -0.033239264 -0.072009645 -0.01752304 0.04723037 0.012164094
0.020011285 0.06916524 -0.045076367 -0.028333502 0.002305029 0.0474859 0.0302957 -0.053133342
0.07389695 -0.021055533 0.071546115 -0.03813614 0.050013054 -0.018319037 0.011549162 0.07398567
0.017242232 0.009937785 -0.026226426 0.037631147 -0.018125087 -0.0029079234 0.009854175 0.06067435
0.014049221 -0.055461068 -0.012789604 0.02858133 -0.07875303 -0.041992668 -0.021477701 -0.02791504
-0.027328728 -0.011291679 0.023849376 -0.04783155 -0.052688275 0.07220012 0.022175781 -0.04066371
0.0032483393 -0.0714706 0.013063792 -0.07840883 -0.075530194 0.08072553 -0.06270852 -0.06596594
0.024506938 -0.015046639 0.03100417 0.07123638 0.008643417 -0.07892367 0.0012055845 0.018595839
0.067203686 -0.032656677 -0.066749126 -0.0017924737 -0.055076525 -0.034984738 0.058019746 0.010933249
0.07552584 -0.050115146 0.031130284 -0.017216934 -0.07460784 -0.0565838 -0.0036851496 0.049140055
0.059615724 -0.07380016 0.028738113 0.03766969 -0.04026968 -0.031699296 -0.045832846 -0.08055195
0.0783672 -0.07131209 0.036122717 -0.027620953 -0.08639826 0.04567042 0.003176531 -0.0052853855
-0.04298388 0.00032012817 0.038663473 0.020105645 -0.082790494 -0.06957052 -0.05805139 0.061859846
-0.0054843994 -0.032814734 0.012302628 -0.013583015 0.01781683 -0.07206507 -0.014554645 0.09041211
0.004934145 0.084781654 0.060837857 0.001364067 0.07298396 -0.021543266 0.06221007 0.0058959327
-0.08761687 0.03135386 0.01106593 -0.05839135 0.05300017 -0.06594699 -0.07827089 -0.008888411

gin_layers.0.gin_conv.mlp.1.weight f4 [128]
00000000: 0599 623f 9710 6b3f f8d2 813f f7f0 843f
00000010: ef62 863f eaa6 4b3f a9e6 6a3f 39b6 8f3f
00000020: ceb1 5b3f 08c1 853f 4f3b 993f a0b7 963f
00000030: 1ddc 6f3f 0217 5a3f f10c 893f a581 9f3f
00000040: d96e 7e3f 9198 983f 0e70 933f 54bc 513f
00000050: f86c 893f 1359 963f 0ecd 5c3f bf67 603f
00000060: b420 823f 422c 913f 493d 573f fe39 843f
00000070: fc15 8b3f 150d 8e3f b3f6 823f 992e 783f
00000080: e89a 7a3f af75 6d3f 1156 7e3f aa3b 9b3f
00000090: 520f 6a3f f955 6d3f 4cd0 903f eda8 6f3f
000000a0: 108f 803f c864 723f c0ad 873f 012c 9c3f
000000b0: 0cb4 623f d714 6e3f df5a 873f b86b 8a3f
000000c0: 3751 6c3f f886 703f 9c89 7a3f fc7c 693f
000000d0: 5917 993f f9d5 a83f bf4f 563f 7a3e 523f
000000e0: 7ec5 5b3f 4345 723f 8a24 7d3f 8e08 703f
000000f0: 7e68 633f f11d 5b3f 9293 853f dcb4 863f
00000100: 485d 723f f063 783f 8171 7e3f b17e 793f
00000110: 691e 5d3f b0c6 673f 7875 753f ad90 5a3f
00000120: 0790 713f 63c0 8d3f 0b77 a33f 8d02 933f
00000130: 5556 9d3f dafe a73f b982 7d3f 978d 7d3f
00000140: 166a 6b3f 09a3 793f 9518 793f 1f3f a13f
00000150: 9adf 7f3f ed91 683f 1ca1 503f cd57 973f
00000160: ae22 753f 60e0 973f 59d2 713f 87f8 6b3f
00000170: a229 923f 3b16 7b3f 6c29 8c3f dd74 633f
00000180: 15df 643f 0054 6a3f 728c 5c3f bcb5 593f
00000190: b421 893f d8a1 9a3f 1d1f 7f3f c1ba 7d3f
000001a0: 53bc 793f 4e45 8c3f 5fe3 703f 4005 7d3f
000001b0: 6021 723f e9a9 793f c6df 5f3f 6bde 693f
000001c0: c449 813f 37e4 613f a6b9 823f 6cf3 4e3f
000001d0: 9361 9b3f dbfd 713f de89 6d3f 7f7a 863f
000001e0: cdeb 5c3f b04f 813f 902b 7d3f 07e2 893f
000001f0: ec14 653f c012 753f 0069 843f b27f 843f
0.8851474 0.9182219 1.0142508 1.0386037 1.0498942 0.79551566 0.9175821 1.1227485
0.85818183 1.0449533 1.1971225 1.1774788 0.9369524 0.8519136 1.0707074 1.2461439
0.9938789 1.192156 1.1518571 0.8192799 1.073638 1.1745933 0.8625039 0.87658304
1.016623 1.1341631 0.8407789 1.0330198 1.0866084 1.1097742 1.0231537 0.969461
0.9789262 0.92757696 0.99350077 1.2127583 0.91429627 0.9270931 1.1313567 0.93617135
1.0043659 0.9468503 1.0599899 1.2200929 0.8855598 0.9300055 1.0574607 1.0814123
0.92311424 0.93955946 0.97866225 0.91206336 1.196025 1.3190299 0.8371543 0.8212658
0.85848224 0.94636935 0.9888388 0.93763053 0.8883132 0.8559256 1.043566 1.0523944
0.94673586 0.9702749 0.99391943 0.9745894 0.8637453 0.9053755 0.9588237 0.8537701
0.94360393 1.1074337 1.2770704 1.1485153 1.2291971 1.312465 0.9902759 0.99044174
0.9195875 0.97514397 0.97303134 1.2597388 0.99950564 0.90847665 0.81495833 1.182367
0.9575604 1.1865349 0.9446159 0.921761 1.1418955 0.98080796 1.0950141 0.88850194
0.89402896 0.91534424 0.861518 0.8504293 1.071341 1.2080641 0.9965685 0.9911309
0.97552985 1.095865 0.9409694 0.98836136 0.94582176 0.9752489 0.87450826 0.9135501
1.0100636 0.88238853 1.0212905 0.8084018 1.2139152 0.9452798 0.92788494 1.0506133
0.86297303 1.0102444 0.98894596 1.0772103 0.8948505 0.95731735 1.0344543 1.035147

gin_layers.0.gin_conv.mlp.1.bias f4 [128]
00000000: 04b2 01be ab43 3fbc 5473 923d eaa2 843d
00000010: 2cf0 103d 103b 02be 03d6 29bd 40ce 963d
00000020: a7cd 90bd 22ac 5d3d 9116 be3c c54b 963d
00000030: 22f3 87bc 17d0 40bd c143 1d3c 4d47 193c
00000040: 6a73 0fbb 335b 0d3d 8c7b 843d f087 153c
00000050: cbf3 c23c 9a1f fb3c 2dae f2bd 6bd7 ccbd
00000060: 162a 53bd bbf0 203d 6751 c1bd dcb2 05bd
00000070: fe62 84bc 0792 a43d 9608 df3d b541 1f3d
00000080: f15d 423c 5b59 b43b 1d4a a5bd a888 4d3d
00000090: 5f6f 1abc 78c7 7abd 20f1 e23b 823b dbbd
000000a0: 2fb2 6fbd a7a8 8a3d 0cc0 de3b 9cd6 593d
000000b0: a6f8 02bd 874d 1cbc 203a 983d 6e68 44bc
000000c0: d0f8 68bc ac53 813c 648d 853d 5eb3 d6ba
000000d0: 8ac6 3a3c b99a 713d 3af9 12be 7f82 31be
000000e0: b6a4 73bd af20 dbbc 5ac1 6abc 0e8e 83bd
000000f0: 8f05 b4bc 5da6 41be 119f 1b3c 78fe 8b3d
00000100: 1c23 f73b fe2a 47bc 58d7 603c b58f 0cbd
00000110: 7512 00be 5848 6dbd 7a0a 803d 664c 38bd
00000120: ab1e 93bc 0963 dd3c 4591 233d 1c4d 05ba
00000130: 0a09 333d 7fe6 053d e944 8fbc 4b79 9d3d
00000140: 19ba 64bd f915 883c 5902 173d 962b 133d
00000150: c307 f3bc 692b 55bc cfb9 35bd 5061 273d
00000160: 5f69 aabb 334f a73b 67e6 26bd ff31 f9bd
00000170: 6d4b 0e3d c50a 87bb c39e b23d 434e 86bd
00000180: 8427 c1bd 9ca2 51bd 0dd2 01be fc42 07bd
00000190: d63b 26ba 1928 8a3d 8c85 853d 8019 f7bc
000001a0: 3b23 27bd 69fc 023d 59eb 4cbd a751 6abd
000001b0: eef7 85bd 8353 593d 6753 87bd 9578 6bbd
000001c0: d328 5e3d 4b49 f1bd 0f45 6bbb 446b 61bd
000001d0: 8f37 be3c c0dc 1bbd e5b3 98bd cffc 153e
000001e0: f0cd 243d 872f 1dbd bb07 893d 8ce9 d03a
000001f0: baf5 eabd 6c98 d7bc fbdf a03d 1be4 47ba
-0.12665564 -0.011673848 0.07150903 0.06476386 0.035385296 -0.12717843 -0.041463863 0.07363558
-0.07070475 0.054119237 0.02320412 0.07338671 -0.016595427 -0.04707345 0.009598673 0.009355378
-0.002188886 0.034510802 0.06468877 0.009126648 0.02379789 0.030654717 -0.11849628 -0.10002025
-0.05155381 0.03929208 -0.094393544 -0.032641277 -0.016160484 0.08035665 0.108903095 0.038881022
0.011863218 0.005503816 -0.080707766 0.050179154 -0.009425967 -0.061225384 0.006925717 -0.107047096
-0.05851954 0.06770449 0.006797796 0.053183183 -0.03197541 -0.009539968 0.074329615 -0.011987789
-0.014219478 0.015786968 0.06521109 -0.001638036 0.011399874 0.058985446 -0.14352885 -0.17334937
-0.059483252 -0.026748983 -0.014328325 -0.06423579 -0.021975307 -0.18911119 0.009498374 0.068356454
0.007542027 -0.012156246 0.013723217 -0.034316737 -0.12507041 -0.05793032 0.06251998 -0.044994734
-0.01795896 0.027024763 0.03993346 -0.00050850376 0.043709792 0.03269052 -0.017488914 0.076891504
-0.05584154 0.01661204 0.036867473 0.03593024 -0.029666787 -0.013010838 -0.044366654 0.04086429
-0.0052005495 0.005105877 -0.040747073 -0.12167739 0.0347399 -0.004121157 0.08721688 -0.06557896
-0.09431365 -0.051180467 -0.12677784 -0.033022866 -0.0006341314 0.06745929 0.06519613 -0.030163527
-0.040805083 0.031979 -0.050029133 -0.057206776 -0.065414295 0.05305816 -0.066077046 -0.057488043
0.05423815 -0.11781558 -0.0035899316 -0.055033937 0.023219852 -0.03805232 -0.07456187 0.1464722
0.04023546 -0.038375404 0.066909276 0.0015938743 -0.1147265 -0.026317798 0.07855221 -0.0007625238

gin_layers.0.gin_conv.mlp.1.running_mean f4 [128]
00000000: fcf7 38c1 d707 70c1 7631 9e41 d560 9141
00000010: fb6f 8341 5493 9941 0ba2 26c1 ccb1 9241
00000020: 0666 2ac1 853d a041 5765 7441 40b4 7b41
00000030: 01f1 93c1 fc89 49c1 d783 9041 6b3e 8341
00000040: da2f 75c1 3d36 8441 0be0 9541 3eb5 9a41
00000050: 6c2a 9341 bcd9 8941 6c48 36c1 1f56 34c1
00000060: ad4e 4bc1 b2a4 9741 a0f7 21c1 4dfe 89c1
00000070: c969 8f41 1192 8f41 354d 9d41 606c 8541
00000080: 4c5a 8841 11c6 55c1 101e 84c1 8c1f 8d41
00000090: e1a9 7ec1 6add 7641 c189 8941 cbfc 28c1
000000a0: 906e 67c1 0eb1 7bc1 fae7 8741 686a 7441
000000b0: 2eba 45c1 7725 4ec1 7671 77c1 762e 8841
000000c0: 7f47 62c1 0cc0 66c1 bd5f 9c41 de57 5ec1
000000d0: 2aa3 8541 b188 9141 8566 77c1 bc5d 0ac1
000000e0: 15ec a341 0715 3ac1 8164 7fc1 1567 6fc1
000000f0: 4313 8bc1 5416 8f41 f9b4 8241 6bc1 8e41
00000100: 2839 61c1 e8d7 4dc1 8fa9 1941 efe6 9c41
00000110: 5c02 9641 58ae 8741 89d0 7cc1 8353 9b41
00000120: 23b9 26c1 0bde 7e41 8bc9 8a41 7f60 7e41
00000130: 5226 8541 386a 9741 7c40 57c1 2d3b 9741
00000140: fd60 b4c0 b323 8641 1b0c 79c1 1398 7e41
00000150: a79c 48c1 4caa 8741 519b 72c1 520e 8c41
00000160: 09cd 7bc1 ef4a 8541 0b9f ad41 de2f 3dc1
00000170: 2d89 8f41 1200 55c1 8f70 9841 bcfd ac41
00000180: 002f 1ac1 5e6b 50c1 6a8b 68c1 3fb6 7ec1
00000190: cc1d 8c41 b43f 8441 ea35 77c1 cdb7 2ac1
000001a0: baac 41c1 7107 9c41 bc42 8ac1 df9a 38c1
000001b0: 2e39 71c1 bd9c 71c1 c749 9141 e00e 36c1
000001c0: c7cd 9041 96b1 5ac1 6080 63c1 463e 8f41
000001d0: 49af 8341 60b4 71c1 2d58 4bc1 4b81 5bc1
000001e0: c94d 8f41 3f3c 77c1 cbe0 33c1 e385 66c1
000001f0: 35ee 83c1 420b 5cc1 ae99 9f41 349b 7141
-11.560543 -15.001914 19.77415 18.172281 16.429678 19.196938 -10.414561 18.336815
-10.649908 20.030039 15.274741 15.731506 -18.492678 -12.596188 18.064375 16.405478
-15.3241825 16.526484 18.734396 19.338497 18.395714 17.231316 -11.392681 -11.271026
-12.706708 18.955418 -10.122955 -17.24917 17.926653 17.946321 19.662699 16.677917
17.04409 -13.360856 -16.514679 17.640404 -15.916474 15.429056 17.192263 -10.561717
-14.464493 -15.730726 16.98827 15.275978 -12.357954 -12.884147 -15.4652 17.022686
-14.142455 -14.421886 19.546747 -13.896452 16.70467 18.191744 -15.462529 -8.647884
20.490274 -11.630134 -15.962037 -14.9626665 -17.384405 17.885902 16.338366 17.844442
-14.076454 -12.8652115 9.603896 19.61276 18.751152 16.960129 -15.800912 19.415777
-10.420199 15.92921 17.34841 15.898559 16.643711 18.926865 -13.453243 18.903894
-5.6368394 16.767431 -15.565455 15.9121275 -12.538245 16.958153 -15.162919 17.506992
-15.737557 16.661589 21.702658 -11.824186 17.94198 -13.312517 19.05496 21.623894
-9.636475 -13.026213 -14.534037 -15.919494 17.51455 16.531105 -15.450663 -10.669873
-12.10467 19.503633 -17.282585 -11.53781 -15.07646 -15.100766 18.161024 -11.378632
18.100477 -13.668356 -14.218842 17.905407 16.460588 -15.106537 -12.709027 -13.719066
17.912981 -15.4522085 -11.242381 -14.407687 -16.491312 -13.7527485 19.950039 15.100391

gin_layers.0.gin_conv.mlp.1.running_var f4 [128]
00000000: c6d7 9b42 8d55 1a43 ba06 5d43 9694 3643
00000010: f1df 1543 d4ee 5943 d365 7242 24cd 3843
00000020: 9a23 8942 0f03 5c43 6208 0143 ba4b 0943
00000030: 7e45 3f43 b386 e942 7b9e 3343 9fe6 1443
00000040: e2bc 0443 ed7f 1643 06dc 4043 64da 5243
00000050: d3f0 3943 61fd 2343 f74a a442 223e 9c42
00000060: 45b9 b442 87f8 4843 e6d1 7a42 e600 3f43
00000070: 410b 3143 d63c 3743 9afb 5743 716b 1c43
00000080: da8d 1f43 72ae d042 febb 1943 5a92 2a43
00000090: 7030 2543 2a7a 0443 64f1 2243 d15a 7c42
000000a0: 6f78 fd42 352c 0e43 c997 1e43 a234 0143
000000b0: 1494 d342 bae1 bd42 e920 0843 7921 2043
000000c0: a93e ee42 f813 e942 4641 5443 959e de42
000000d0: dfd2 1a43 3958 3443 79bc 1043 61d8 2542
000000e0: d95b 6a43 afab 9542 7746 0f43 8be8 0343
000000f0: 36d0 4c43 01f4 4b43 d4b9 1243 6fdb 2e43
00000100: de7c e842 f1e4 b642 8897 ee42 0edc 5343
00000110: 2df2 6b43 5013 1f43 d0ca 1e43 7c9f 6343
00000120: 335c 7342 27f5 0c43 3d69 2543 0641 0b43
00000130: 31b1 1943 df23 4643 ef9e ca42 ff42 5043
00000140: 23ce a942 8bf6 1b43 dba5 0c43 d792 0a43
00000150: aadf bc42 cbee 5b43 c767 0643 7c13 2a43
00000160: cce1 0e43 04f9 1943 d068 8843 b2fe a542
00000170: cd09 3343 75d1 c542 db19 4843 921d 8f43
00000180: a7d7 5242 7dd8 bd42 670c 0543 3dbf 1543
00000190: 9a5a 2a43 1488 1743 9544 0543 ce43 9642
000001a0: 3f2d a342 65ed 5143 d5a9 3043 76a2 9342
000001b0: 7240 0243 6d9e 0d43 0445 5d43 1237 9e42
000001c0: f81d 3643 362c dd42 e340 f142 3883 3343
000001d0: 2faf 1343 1be3 0043 fb6b ec42 a1db d242
000001e0: 3b60 3343 b6cc 0743 a690 a042 f50d e742
000001f0: 89b7 2043 166a d142 758b 6543 7c2a fb42
77.92143 154.33418 221.02628 182.58041 149.87477 217.93292 60.599438 184.80133
68.569534 220.01195 129.03275 137.2958 191.27145 116.763084 179.61906 148.90086
132.73782 150.49971 192.85947 210.85309 185.94072 163.98976 82.146416 78.12135
90.361855 200.97081 62.70498 191.00351 177.04396 183.23764 215.98282 156.4197
159.55411 104.34071 153.73434 170.57169 165.18921 132.4772 162.94293 63.088688
126.73522 142.17268 158.59291 129.2056 105.789215 94.94087 136.12856 160.13075
119.12238 116.539 212.25497 111.30973 154.82372 180.34462 144.73622 41.461308
234.35878 74.83532 143.27525 131.90837 204.81332 203.95314 146.72589 174.85716
116.24388 91.44715 119.29596 211.85959 235.946 159.07544 158.79224 227.62299
60.84004 140.95763 165.41109 139.254 153.69215 198.14012 101.31042 208.2617
84.90261 155.96306 140.64787 138.5736 94.436844 219.93279 134.40538 170.07611
142.88202 153.97272 272.81885 82.99745 179.03828 98.909096 200.101 286.23102
52.710598 94.92283 133.04845 149.74702 170.35391 151.53156 133.2679 75.13243
81.58837 209.92732 176.6634 73.81731 130.25174 141.61885 221.26959 79.10756
182.11707 110.58635 120.62673 179.51257 147.68431 128.88713 118.2109 105.42896
179.3759 135.79965 80.28252 115.52726 160.71693 104.7072 229.54475 125.58298

gin_layers.0.gin_conv.mlp.3.weight f4 [128, 128]
00000000: ad8d 673a 04f3 b5bc 51b9 12bd 656f 87bc
00000010: 2800 633d 1b59 1b3d db72 313d 6e8c fd3c
00000020: feba 1b3c 51ca 603b 20a2 723e 3c96 db3d
00000030: 3af8 51bd 05da f7bc 4156 2bbd d6f5 983d
00000040: 50dd ffbd ad60 e53d 59e6 9c3d 177c de3b
00000050: 45dd af3c a85c 153e d392 e13c 29b9 b2bd
00000060: cc2a fdbd 9130 663d d215 853d be50 7a3c
00000070: fc1a cb3d ddb0 b6bc 402d 55bd c9f3 113c
00000080: 4e27 6b3d dbfe 0dbd e87f 1dbb 6d88 eb3d
00000090: 9524 32bc d30c 03bd 132f 2f3d 1204 bcbd
000000a0: f2f9 3fbd 9cb5 0abe dd31 073e 3528 373e
000000b0: c0f1 d4bb 4f10 e03c 71ea 89bd faf4 443d
000000c0: b7d5 54bd 18dd af39 49ab fc3c abe2 ad3c
000000d0: 81a1 b23d 65a6 0b3e b01d c9bd d438 a0bd
000000e0: 0474 babd 4404 1c3c 1e09 29be 616e afbd
000000f0: 3017 cebd 4375 3cbd 6d0c cf3d fb7c a73d
00000100: c447 9cbd ac5e 6bbd f46f 06be fb8a cfbc
00000110: 5ce9 90bd fb32 17bd 54a8 9ebc 9148 06bd
00000120: 7ea3 1ebd 7622 eabc 4b16 d73d df46 e23d
00000130: 7938 7b3d e7c2 483e 34f4 87bd b2a0 543d
00000140: 893e 743d a672 bc3d ac76 fbbd 03b3 333e
00000150: a8ab 94bc 5019 9a3d 6899 f93c 259a 1a3d
00000160: d673 bdbc 1c9d 143e f614 d9bd ee4b 183d
00000170: e313 553c 1506 4fbc d16d 9c3d b2c8 95bd
00000180: c371 e3bd b9b1 dfbd f741 403c 17bd 64bd
00000190: 28fd 12bb f324 af3d f0c5 e5bc 9730 6f3c
000001a0: fc14 a63b 2ae7 953d f693 b7bd ada2 53bd
000001b0: cac9 5fbb c6ae b6bc 5998 8abd 6fcc 7ebd
000001c0: 3336 933d 4cee 01bd 0bcc b9bc 7b51 683c
000001d0: 9596 dc3d f81c 113d cd4a edbd f815 c3bd
000001e0: 92ec 133d 88d0 283d 440c d63d 612b 323d
000001f0: fb25 15bd dc19 08be 741e 7b3d 19e3 f73d
00000200: 6453 f6bd 7051 0cbc c31b 983d 8dff 053d
00000210: b8d7 cd3d 8a59 7dbd abc0 a1bd 848c 2abc
00000220: 7655 1fbd e684 133d 3c7f 9b3d c0cb 153e
00000230: 9c39 6dbd b4f3 96bd 303f 343c 650d f63d
00000240: a7b4 b6bd 501f 113e 9b4d f73d 86c0 fabc
00000250: e3d0 493d b240 ac3d e157 a1bd 5369 833c
00000260: 5220 e2bd 7709 ce3d 47e9 cebd cfae a5bc
00000270: 5c3f 6f3d 6265 1c3e d2f9 e33d b11a ea3d
00000280: e827 973d 2a42 143d 3ae3 a4bd ac28 153d
00000290: 9360 dabd 2a25 a6bc ec46 3c3d 3f5a 77bd
000002a0: 32a7 e3bd 2efa 97bd 8c0c 0d3e 8cd2 4a3e
000002b0: 5ebe 2dbd 7029 a33c 5520 1bbd 2e79 623d
000002c0: b278 08be 4eb5 153d 47c6 97bc cd59 87bc
000002d0: 1323 80bc 5bc5 2c3e eb02 f9bd c124 8a3b
000002e0: 9371 9abd 13f5 1fbd 4bc0 00bb e2d5 bb3c
000002f0: 2c43 e9bc 806d 5b3d b302 b33d 7e9a d63d
00000300: e787 e23c 8c39 ebbc 2c70 7dbc a5c3 34bc
00000310: 1564 86bb bbae 523d 55a3 2fbd b787 9dbd
00000320: 4437 adbd 44cb 073e 6577 cf3d f999 4b3e
00000330: 5444 813d 5706 e73d 04ab a7bd 232d 333d
00000340: 7678 89bc 6262 933d 4fcb 78bd 6cae 433e
00000350: 9bd9 84bc 8a35 15bc bf29 413b f873 483e
00000360: 2e31 f2bd 552e 863d 6bfd f23c c0c0 8b3d
00000370: 1eb4 1c3d 4bbb 50bd eace c23c 0d89 acbd
00000380: 82f6 dcbd 8ace 01be 473c 74ba 2171 f7bc
00000390: 9f33 d6bc 4bbb 183e 7262 ddbd d8bb 193d
000003a0: 22e6 eb3b ccfe 033e f6ea 26bd 95bb 183d
000003b0: 13f3 9e3d ba9b ccbd 6ea5 09be 49c2 12bd
000003c0: 5c37 de3d be7f 8d3a 889d cebd f64f 803c
000003d0: dab4 e33d 881e fc3b b10b 693d 0fd0 b3bc
000003e0: 5076 db3a bb3e f7bd 2003 b93c 9411 d4bd
000003f0: c6ca e2bd 5094 56bd 94e4 8f3d 8383 1abd
0.0008833062 -0.022210605 -0.035821263 -0.01653261 0.05542007 0.037926774 0.043322425 0.030950751
0.009505032 0.0034300277 0.23694658 0.10722014 -0.051262118 -0.030255327 -0.041830305 0.074687645
-0.12493384 0.1120008 0.07661123 0.006789695 0.021467814 0.14586127 0.027535832 -0.08726723
-0.123616785 0.05619866 0.064983025 0.0152780395 0.09917256 -0.022301132 -0.052045107 0.008908221
0.05741053 -0.034666877 -0.0024032537 0.115006305 -0.01087298 -0.031994652 0.042769503 -0.09180464
-0.046869226 -0.13545841 0.13202615 0.17886432 -0.0064985454 0.027351527 -0.06734169 0.04808519
-0.051961627 0.0003354333 0.030843394 0.021226248 0.08722211 0.13637693 -0.098201156 -0.07823339
-0.091041595 0.009522501 -0.16507384 -0.08565975 -0.100630164 -0.046010267 0.10109792 0.08178135
-0.07630876 -0.057463333 -0.13128644 -0.025334826 -0.0707576 -0.036913853 -0.019367374 -0.03278405
-0.038730137 -0.028580885 0.10502299 0.11048674 0.061333153 0.196056 -0.06638375 0.051911063
0.05962995 0.09201555 -0.12278494 0.17548756 -0.018148258 0.07524359 0.030468658 0.03774466
-0.023126524 0.14513057 -0.10599701 0.037181787 0.01300523 -0.012635727 0.07638133 -0.0731367
-0.11105683 -0.1092257 0.011734477 -0.055844393 -0.0022428725 0.085519694 -0.028048486 0.014598987
0.0050684195 0.07319482 -0.08963768 -0.05166881 -0.0034147375 -0.022300135 -0.06767339 -0.06220668
0.07188072 -0.0317214 -0.022680303 0.014179583 0.10770909 0.035428017 -0.11586533 -0.095256746
0.036114283 0.041214496 0.10451558 0.0434984 -0.036413174 -0.13291115 0.06130834 0.12103862
-0.12027624 -0.008564338 0.0742717 0.032714415 0.10050911 -0.06185297 -0.078980766 -0.010409478
-0.03889986 0.036015414 0.075926274 0.14628506 -0.05791627 -0.073707014 0.011001393 0.120142736
-0.089211755 0.14172101 0.12075349 -0.03060938 0.049271476 0.08410777 -0.0787809 0.016041433
-0.11041321 0.10060399 -0.10103088 -0.020224957 0.058410034 0.1527305 0.11131634 0.11430872
0.073806584 0.03619591 -0.080511525 0.03641574 -0.10662951 -0.020281393 0.045966074 -0.0603888
-0.11115874 -0.07420765 0.13774318 0.1980688 -0.042417876 0.01991722 -0.03787263 0.055291347
-0.13327292 0.03654986 -0.018527163 -0.016522313 -0.015641725 0.1687216 -0.1215876 0.004215807
-0.07541194 -0.03905208 -0.0019645866 0.022929136 -0.028474413 0.053571224 0.08740749 0.10478686
0.027652694 -0.028713964 -0.015468638 -0.011032973 -0.004101286 0.051436167 -0.042880375 -0.07691901
-0.08457807 0.13261133 0.101301946 0.19882955 0.06311861 0.11280506 -0.081869155 0.043744218
-0.016781073 0.071964994 -0.060740765 0.19109505 -0.016217044 -0.009107003 0.0029474346 0.19575489
-0.118257865 0.06551806 0.029661855 0.068238735 0.03825771 -0.050959866 0.023780305 -0.08424578
-0.10789205 -0.12676445 -0.00093168434 -0.030205311 -0.026147662 0.14915197 -0.108097926 0.037532657
0.007199065 0.12890166 -0.04075142 0.037288267 0.077612065 -0.0999064 -0.13442013 -0.035829816
0.10850403 0.0010795516 -0.100886405 0.015663128 0.11118479 0.0076940693 0.056895915 -0.021949796
0.0016743634 -0.12072512 0.022584498 -0.10354915 -0.11073832 -0.052387536 0.0702602 -0.037723076

gin_layers.0.gin_conv.mlp.3.bias f4 [128]
00000000: 5426 6c3d 5815 633c 5aab 943d fb42 89bd
00000010: 8d0e 323d b7fd ebba fc96 1c3d 05bc a5bd
00000020: 5004 bbbc dba9 e838 54e3 403d c92d f0bb
00000030: e569 513c d4ba ef3b 39d8 bfbc fd5b 98bd
00000040: 2d86 7f3d 87a0 98bd 0e78 dabd 340e 96bd
00000050: 8f5d c7bc b98d 82bd 2477 a6bd 9b33 6c3d
00000060: dfe9 01bd 3a6e 60bd 474b 33bd 22c3 d93c
00000070: bee8 113c a7a9 663d cddf 3d3c b2b5 a3ba
00000080: 9359 ef3c cae3 5a3d cf8c b2bd d641 a3bd
00000090: 14b3 41ba 6f04 05bd 58cf dabc dbe1 5fbc
000000a0: 2260 ed3b c32f ba3d e57d e23c b586 03bd
000000b0: b179 8a3a c915 6a3d aad9 aebd 4a54 5dbd
000000c0: 464f 84bd 4814 fabc 45e4 88bd 36b3 dc3c
000000d0: beca a93c db7e bcbc 53ac 593d c4ea 67bd
000000e0: dfd9 83bd 8ad7 963d 6ea6 b43d 6517 8fbd
000000f0: bb28 063c 91a7 24bc 159f 00bd 2425 843c
00000100: b421 5f3c 0fc3 30bd ea0f 673d 6521 58bd
00000110: 53f9 4d3d f9e3 abbd dec1 69bd 002c 4a3c
00000120: 542e 60bd 7904 8cbd 32fc 16bc d308 893d
00000130: 6c2f 883d 33f3 fd3a e9eb 45bd a6c2 32bd
00000140: 9843 bebd 65f1 aebd 2ca9 c7bc 3a44 92bd
00000150: 8a1e 243c 70f4 1dbd 3518 8f3d 4fdb 253d
00000160: e5af 6d3b 7fe6 b23d 7bf6 0f3d e398 20bd
00000170: b69f c03c 093a b7bd 97d4 cd3b 8ba1 acbd
00000180: c412 97bd 42b7 763d 937c a73b 4925 483d
00000190: d999 18bd f6ea a6bd 1e9e 7dbd 4b37 1a3d
000001a0: ad8e b73d 6b8f 603b e7ef 4c3d 0700 4ebd
000001b0: 9c63 a73d 913d 013a 7d13 bebd f022 4a3d
000001c0: f25a 8fbc 93f9 0c3c cbc4 8dbd bc0e d43b
000001d0: ce87 b33a f7d3 18bb 0f4b e43b d839 4ebd
000001e0: de4b 473c a2f6 c73c 2db9 8d3d 553e d23c
000001f0: fd61 7cbd bf0f 353c 3150 c9bc 9c6e 8c3c
0.05765374 0.013860069 0.07259245 -0.06702229 0.043470908 -0.001800469 0.038229927 -0.080925025
-0.022829205 0.0001109426 0.047091797 -0.0073296768 0.012781595 0.007315973 -0.023418533 -0.0743942
0.06238382 -0.07452493 -0.1066743 -0.07326928 -0.024336604 -0.06374688 -0.08128193 0.057666402
-0.031717177 -0.05479262 -0.043772962 0.026582304 0.008905588 0.056314137 0.011589003 -0.0012490063
0.029217517 0.053439893 -0.08718263 -0.079715416 -0.00073890504 -0.03247493 -0.026710197 -0.013664688
0.007244126 0.09091141 0.027647922 -0.03211089 0.0010564831 0.057149682 -0.0853761 -0.054035462
-0.06460433 -0.030527249 -0.06684164 0.026940923 0.020726558 -0.023009708 0.053142857 -0.056620374
-0.0643804 0.073653296 0.088208064 -0.06986884 0.008188422 -0.010049717 -0.031401712 0.016130991
0.013618875 -0.043154772 0.05641166 -0.052766223 0.050286602 -0.08393092 -0.05706965 0.012339592
-0.054731682 -0.068367906 -0.0092154015 0.06691136 0.0664967 0.0019374847 -0.048320685 -0.043642662
-0.09290236 -0.08542136 -0.02437266 -0.071419194 0.010017047 -0.038563192 0.06987039 0.040492352
0.0036268171 0.0873537 0.03514717 -0.039208304 0.023513656 -0.08946616 0.006281446 -0.084292494
-0.07376626 0.060233362 0.005111286 0.048863683 -0.037256096 -0.08150284 -0.06191837 0.037650388
0.0896276 0.0034265171 0.050033476 -0.050292995 0.08173296 0.00049301336 -0.09281061 0.049349725
-0.01749942 0.008604425 -0.06922301 0.006471483 0.0013697089 -0.00233197 0.0069669555 -0.050348133
0.012164084 0.024409596 0.06920085 0.025664488 -0.061616886 0.011051117 -0.024574371 0.017142586

gin_layers.0.gin_conv.mlp.4.weight f4 [128]
00000000: 4cf3 7e3f 29dd 833f 841f 813f f5a9 633f
00000010: 267a 863f 6f95 8a3f c1be 6e3f 57eb 8e3f
00000020: 4c43 753f 6923 6e3f 7509 863f bf26 843f
00000030: 76d5 683f 968f 833f 913f 7c3f 12a0 763f
00000040: fb33 873f f6ba 733f 0502 843f 74a9 8a3f
00000050: 2e5b 753f 7c34 6b3f 6a86 683f b0a7 753f
00000060: 8d37 753f d3f8 813f c634 6b3f 4924 833f
00000070: d9ce 673f 446c 8d3f f182 6c3f 713c 843f
00000080: e2f1 6f3f c693 713f ae64 6f3f 8877 703f
00000090: bb93 6f3f 16bc 6a3f 8507 873f 6b22 873f
000000a0: a2f0 8e3f 4912 873f 581d 7d3f af41 713f
000000b0: 8e1b 823f 5ea1 803f 07e9 653f e455 843f
000000c0: de03 743f 2752 773f be78 653f 5f56 673f
000000d0: d61a 6f3f 0a0a 7e3f ea5d 843f eec0 883f
000000e0: 5d74 9e3f 6e5f 833f b502 813f 67fa 7a3f
000000f0: 201d 6d3f 64cf 803f 71d7 773f 684f 743f
00000100: 2655 933f 56a1 813f ee0e 633f 46f8 8f3f
00000110: e16b 703f f883 793f 1a36 883f 6135 733f
00000120: 7415 793f 309f 7b3f 781d 6e3f d58a 6c3f
00000130: 1459 7d3f 2d92 913f 9c59 873f ee3d 673f
00000140: b73e 813f 485b 743f 0420 653f 6409 6a3f
00000150: 7d3f 863f 179e 753f f18d 713f 1411 743f
00000160: edac 833f 280e 713f 202a 6a3f 8d49 6e3f
00000170: bef0 833f 3efe 493f 9b97 743f 503d 753f
00000180: c317 843f 1e53 733f cc73 693f 84a8 6c3f
00000190: e997 7e3f ab8d 893f ef79 713f 5628 883f
000001a0: 23de 873f 60c5 733f c89c 703f 48ae 8c3f
000001b0: 1f0b 7b3f a69d 833f e6ac 883f d677 933f
000001c0: 7b64 643f 73f2 603f 50f8 703f 4fb0 7d3f
000001d0: c90e 773f b3a6 6b3f fb8c 8f3f 0a32 813f
000001e0: 6d5e 823f 830d 743f 9a5b 7e3f cc8c 973f
000001f0: 07cb 883f bfb0 6d3f 28ea 793f 5226 933f
0.9958999 1.0301868 1.0087743 0.8893121 1.0506027 1.0826854 0.9325982 1.116557
0.9580581 0.9302278 1.0471636 1.0324324 0.90950716 1.0278194 0.98534495 0.96338
1.0562738 0.95207155 1.0313116 1.0832963 0.95842254 0.9187696 0.908301 0.95958996
0.9578789 1.015406 0.918774 1.0245448 0.9055 1.1048665 0.923873 1.0330945
0.9372846 0.9436611 0.93513 0.9393239 0.93584794 0.91693246 1.054917 1.0557379
1.1167185 1.0552455 0.988729 0.9424085 1.0164659 1.0049245 0.89808697 1.0338712
0.953184 0.9660973 0.8963736 0.90366167 0.93400323 0.9923407 1.034116 1.0683877
1.2379261 1.0263498 1.0078951 0.98038334 0.92622566 1.006329 0.9681311 0.95433664
1.151036 1.0127361 0.88694656 1.1247642 0.9391461 0.97466993 1.064151 0.95003325
0.9729836 0.98289776 0.93013716 0.9239934 0.9896405 1.1372734 1.0574222 0.9032887
1.0097264 0.95451784 0.89501977 0.9142058 1.0488125 0.9594435 0.9435721 0.9533856
1.0287148 0.94162226 0.9147053 0.9308098 1.0307844 0.7890357 0.9554383 0.9579668
1.0319752 0.950487 0.91192317 0.92444634 0.99450547 1.0746359 0.9432668 1.063731
1.0614666 0.95223045 0.9398923 1.0990686 0.98063844 1.0282485 1.0677764 1.1520946
0.8921582 0.8786995 0.94128895 0.9909715 0.96506935 0.9205124 1.1214899 1.0093396
1.0185066 0.9533312 0.9935852 1.1839843 1.0686959 0.9284782 0.9762292 1.149607

gin_layers.0.gin_conv.mlp.4.bias f4 [128]
00000000: 331d ed3c 1d17 be3c 41c4 28bd 40ad dabd
00000010: 5008 eb3c 47ca 543d 3b11 98bd 5929 193d
00000020: 0827 b2bd 7a51 8ebd e941 c23d 529c 493d
00000030: 772e 9fbd 347b b23d 96cc 9d39 60dd 9dbd
00000040: a7ee 973d 7cae d9bd 0e30 df3d 1dd9 103d
00000050: 4502 14bd 8a9c 1cbd 17bf f4bd 6dd6 e2bc
00000060: 64d1 76bd 48e4 083d 27ad 88bd 130c d13d
00000070: 2c14 ddbd be86 e93d 5bb1 27bd a2eb ad3d
00000080: d7b9 edbd e595 e1bd 73fe b2bd a303 c3bd
00000090: feaa ccbd 1ed7 84bd 7e06 ec3c 2d6b 023d
000000a0: 9d64 4e3d f0f2 df3d bd70 423d 6702 acbd
000000b0: 6f8c 2b3c 9542 c8bc d2c8 23bc 51b7 e13d
000000c0: 47f6 75bd 2703 32bd b3bf edbd 5bdd 92bc
000000d0: 6130 a3bd 92c3 2dbd 2966 4e3d b3cc 093e
000000e0: 94aa 283e 37a3 693c 2d41 e53b 4a7a 083e
000000f0: 80c7 a8bd e341 943d 376c 65bd a833 793b
00000100: b0f9 b83d db07 ebbc 230e 16be 1125 483d
00000110: eb80 783c 597f 95bd 5d00 f93d fdd2 b4bc
00000120: c253 bcbd e3bb 9e3a 07cd e1bc 8a0e babd
00000130: 174a 4ebb 8d57 c43d fd64 8c3d 9ba0 e2bc
00000140: 5f67 5cbc 7ac6 353c 3d51 8fbd 9293 9bbd
00000150: 8191 bd3d 6fd7 a13c 4b23 12bd 4cf2 5dbd
00000160: 90b7 c63d ce06 59bd c04b 2d3d 9890 163c
00000170: 0554 283b 6bdd 4dbe fa22 37bd 9fe3 dc3b
00000180: 4867 2738 d591 6abd 7505 f9bc 8f6f a7bd
00000190: 2598 f03b 5f6c 283d 2b12 19bd 9b56 9e3c
000001a0: 6fe5 8e3d 071b 42bd 33fe 45bd b55c 863d
000001b0: 22a6 c43b f4be 513d a608 30bd 83e0 083e
000001c0: aa0c b8bd c760 b9bd e64e 6cbd f98b e6bc
000001d0: 609c 73bd be8a 98bd 31d9 a33d a43e 143d
000001e0: 4ec1 113d 3e12 5ebd fcf1 383d 069c 5b3e
000001f0: 21c4 9f3d c7df 7cbc b75c 67bd e2e7 7c3d
0.028944587 0.02320438 -0.041202787 -0.10677576 0.028690487 0.05195072 -0.074251615 0.037392948
-0.08698851 -0.06949134 0.094852276 0.049221344 -0.07772534 0.087149054 0.00030097802 -0.077082396
0.07418566 -0.106289834 0.108978376 0.035363305 -0.036134977 -0.038235225 -0.1195051 -0.027690137
-0.060258284 0.03342083 -0.06673651 0.10207381 -0.10794863 0.11402653 -0.040940624 0.08492209
-0.11607712 -0.11014918 -0.087399386 -0.09522178 -0.09993552 -0.06486343 0.02881169 0.031840492
0.05038892 0.109350085 0.047470797 -0.08398896 0.010470494 -0.024445811 -0.00999661 0.11021293
-0.06004932 -0.043460038 -0.11608829 -0.017927816 -0.07968212 -0.04242284 0.050390396 0.13456993
0.1647132 0.014260105 0.006996295 0.133279 -0.082411766 0.072391294 -0.056011405 0.0038025174
0.09031999 -0.02869027 -0.1465383 0.048863474 0.015167455 -0.0729968 0.121582724 -0.022073263
-0.09195663 0.0012110438 -0.027563585 -0.09084804 -0.0031477266 0.095870115 0.068551995 -0.027664473
-0.01345238 0.011094684 -0.06997917 -0.07596506 0.09256268 0.019756047 -0.03567819 -0.05418615
0.097029805 -0.052985005 0.04230857 0.009189747 0.0025684845 -0.20103996 -0.04471109 0.0067410017
3.991209e-05 -0.057267983 -0.03039811 -0.08175575 0.007342356 0.041118976 -0.037370842 0.019328406
0.06977355 -0.047389057 -0.048338126 0.06560651 0.00600125 0.051207498 -0.042976998 0.13366894
-0.089867905 -0.09051662 -0.05769243 -0.028142916 -0.059475303 -0.07448338 0.0800041 0.03619255
0.03558474 -0.054216616 0.04515265 0.21446237 0.078010805 -0.015434212 -0.056484904 0.06174458

gin_layers.0.gin_conv.mlp.4.running_mean f4 [128]
00000000: 8591 573f d8e8 853f 5af2 1ac0 3ee2 843f
00000010: 120d 93c0 5bce 2340 966d a23f 835a 59c0
00000020: a86b 743f 529e 8c3f 5652 493f 0fd9 493f
00000030: 647a 74c0 9bf6 463f cf37 2bc0 9462 a13f
00000040: eb14 443f 1497 f13e f482 80c0 422c 5bc0
00000050: 93be 5a3f 0cd3 1ec0 346b 203f eea8 a33f
00000060: 4185 943f b3f8 9bbf 7525 973f 43fb 8f3e
00000070: fddb a03f 0c3e 273f f271 fa3d e73d 1f3f
00000080: 43c9 46c0 0666 ae3f 26f6 753f c501 a43f
00000090: cc8a b73f 70af 9f3f d316 0840 dde0 73c0
000000a0: 218a 2940 d883 483f 188f 7e3f 647c 643f
000000b0: dece 1cc0 fa6f 2e40 f3d8 ebbe 8832 463f
000000c0: 9a99 12c0 ff62 8b3f 0362 b43f 7e00 46be
000000d0: c829 8c3f d0ed 6dc0 b27d 8ac0 186c 3a3f
000000e0: 2de8 1140 dd5a 613f a787 0240 07ca 85c0
000000f0: dfed 7a3f ef94 373f aed9 823f b9e5 2a3d
00000100: 28ea 3640 348e 43c0 7471 0640 da8d 0740
00000110: 77e0 80c0 6f65 3a3f ea98 753f 9368 c23e
00000120: 681b af3f ffa9 8b3f 2b00 62be d47a 613f
00000130: 3f74 d8bf 737f 2b40 26f1 803f a899 4e3f
00000140: 8633 5bc0 c189 3cc0 2ce0 1cc0 bd67 893f
00000150: 7fd7 613f a1dd 40c0 749c b13e 0979 8a3f
00000160: 850a 74c0 c802 dd3f ae79 74c0 5404 05bd
00000170: aec3 54c0 ee66 783f acf5 703f 7924 003e
00000180: d06c 2640 6166 9e3f 9248 0fc0 6e73 9b3f
00000190: 2325 23c0 4530 78c0 d9bc 58bf c747 2c40
000001a0: 4a12 2240 aafa 7a3f 1abf b63f 14b9 0d40
000001b0: bf0d 34c0 7a4c 243e 7638 8bc0 4edc 833f
000001c0: c9a5 5d3f 52d9 973f cbba 2ac0 73db 823f
000001d0: 9ed2 633f e680 c03f 275a 0740 4765 bb3e
000001e0: a3cf 1d3f a9f9 4a3f 9c50 6e3f 90ac 6a3f
000001f0: 9d6d 83c0 5b11 0d3f 7410 963f 87d0 3c40
0.8420642 1.0461683 -2.421042 1.0381544 -4.5953455 2.55947 1.2689693 -3.3961494
0.9547677 1.0985816 0.7864126 0.7884683 -3.8199701 0.7772004 -2.6752813 1.2608209
0.7659442 0.47185576 -4.0159855 -3.4245763 0.85447043 -2.4816313 0.6266358 1.2785928
1.1603166 -1.2185272 1.1808306 0.28121385 1.2567135 0.6532905 0.122287646 0.6220383
-3.106034 1.3624885 0.9607872 1.281304 1.4339232 1.2475414 2.126393 -3.8105996
2.6490557 0.7832618 0.99437094 0.89252305 -2.4501262 2.7255845 -0.46063957 0.77420855
-2.290625 1.0889586 1.4092411 -0.19336125 1.0950251 -3.71764 -4.3278437 0.7282119
2.279796 0.8802927 2.0395296 -4.1809115 0.9801921 0.7171163 1.022268 0.041722987
2.8580418 -3.0555544 2.1006746 2.118033 -4.0274005 0.72811025 0.95936453 0.3797041
1.3680239 1.0911254 -0.22070377 0.88078046 -1.6910475 2.679654 1.0073593 0.8070321
-3.4250197 -2.9459078 -2.4511824 1.0734783 0.88219446 -3.0135272 0.34689677 1.0818187
-3.813142 1.7266474 -3.8199267 -0.03247483 -3.3244433 0.9703206 0.94124866 0.12513913
2.6003914 1.2374994 -2.2388043 1.2144601 -2.5491416 -3.8779461 -0.8466316 2.691881
2.5323663 0.98038733 1.427707 2.2144213 -2.813339 0.16044798 -4.350642 1.0301607
0.86581093 1.1863196 -2.667651 1.022322 0.8899325 1.5039337 2.1148775 0.36600706
0.61644953 0.792872 0.9309175 0.9166956 -4.1071305 0.5510461 1.1723771 2.9502275

gin_layers.0.gin_conv.mlp.4.running_var f4 [128]
00000000: cc8b e540 fbaf 2d41 dee3 3541 4bee 2040
00000010: 915d 8741 e8da ee40 f4e5 0040 db2c 9c40
00000020: 4f85 8f40 cf47 a83f fbce 3341 0748 4b41
00000030: b318 fd40 448d 3841 8d0d 9040 e29a 1340
00000040: be7a 4541 c853 fd3f c007 ba40 0b9c b940
00000050: 2a51 1c3f 6fe2 6641 d5ee 6840 bfda 3141
00000060: 728a ce3f c02d 7841 c5ac 0d40 6939 2741
00000070: 37bc ec40 f3c0 5541 80a0 9a40 bd61 2441
00000080: 93a4 2541 6131 6940 2d65 1140 c76f c33f
00000090: 1449 ad3f d31d 993f 319b 2641 3796 d040
000000a0: 54d4 1240 1110 3d41 bc5b 3041 2785 a93f
000000b0: 9528 fd40 ae71 8b40 6936 3041 3f0c 6041
000000c0: daaa 4741 90e6 9d3f a22c 2740 1164 0c41
000000d0: 69c3 833f 3d75 3c41 b07a 5041 e01f 2941
000000e0: b16f bf40 7513 d440 d002 8140 dc85 1440
000000f0: ecac bb3f 9c4c 8d41 7d66 003f 2099 1741
00000100: e22d 9840 ef77 8641 ed1b ed40 c88b 9c40
00000110: 000c 9841 0b69 453f c10f 4a41 c9ba 8840
00000120: c40c 6240 da11 ce40 d43b 1341 bcb9 c03f
00000130: e853 ea40 b749 ae40 7d86 6f41 2e67 4640
00000140: e1f6 5c41 7c6a 0941 9fbb 9641 d438 cf3f
00000150: 586f 3941 bcd4 c741 e90c 6240 b7b7 8940
00000160: bfd8 b840 a2ed 1340 e5da 5041 dc30 0141
00000170: 84c9 4141 db95 6941 d46a f83e 233b 1041
00000180: bc7d 4241 62f1 1e40 e9ad 1841 c40f 9f3f
00000190: d300 2541 b0a6 a340 ab02 4541 99c9 7540
000001a0: 948e 0c41 3cd0 2240 e208 ab3f 911a e340
000001b0: 2d90 9b40 01d8 4a41 db85 3840 70e1 6341
000001c0: 7976 9c3f 16c2 a440 918e bf41 4136 5f3f
000001d0: 84c9 8a3f 555f 0840 d4cf f040 14f6 6a41
000001e0: 6144 1f41 d3f0 9d3f 6002 5f41 d2bf 1d41
000001f0: 9efd 9140 a5c3 8d40 eb64 0140 59e5 be40
7.173315 10.855464 11.368132 2.5145442 16.920687 7.464222 2.0140352 4.8804755
4.485023 1.3146914 11.238032 12.705085 7.909265 11.534489 4.501654 2.3063283
12.342466 1.9791193 5.813446 5.800298 0.61061347 14.430282 3.6395772 11.115905
1.6136 15.511169 2.21367 10.451516 7.3979754 13.359607 4.8320923 10.273862
10.352679 3.6436388 2.2718003 1.5268487 1.3537927 1.1962227 10.412889 6.518337
2.2942095 11.816422 11.022396 1.324376 7.911204 4.357627 11.013284 14.00299
12.479212 1.2335987 2.6120992 8.77443 1.029401 11.778623 13.029953 10.570282
5.982384 6.627375 4.0315933 2.3206701 1.4662147 17.662407 0.50156385 9.474884
4.755601 16.808561 7.409659 4.892063 19.00586 0.7711341 12.628846 4.272801
3.5320292 6.439679 9.202106 1.5056682 7.3227425 5.4464984 14.970334 3.1000476
13.810273 8.588497 18.841612 1.6189218 11.589684 24.978874 3.532038 4.303676
5.7764583 2.311379 13.053441 8.074429 12.111698 14.599086 0.48519003 9.014438
12.155697 2.4834828 9.542459 1.2426686 10.312701 5.1140976 12.313151 3.8404295
8.784809 2.5439596 1.3362086 7.096993 4.8613496 12.677735 2.88317 14.242538
1.2223655 5.148692 23.944613 0.8719216 1.0842748 2.1308186 7.5253696 14.685078
9.954194 1.2339119 13.93808 9.859331 4.562209 4.4301324 2.0217845 5.9654965
