GNN/archive/best_gat_model.pth (torch, 227521 bytes, 11 tensors)

embedding.weight f4 [100, 128]
0	0x3ff6a527	1.926915
1	0x3fbe5f54	1.4872842
2	0x3f669567	0.9007172
3	0xc006c0dd	-2.1055214
4	0x3f2dacd5	0.67841846
5	0xbf9e0592	-1.234545
6	0xbd306787	-0.04306748
7	0xbfcd65ba	-1.604667
8	0xbf408bff	-0.7521362
9	0x3fd3095a	1.6487229
10	0xbec8f2f6	-0.39247864
11	0xbfb3a963	-1.4036068
12	0xbf3a566d	-0.72788125
13	0xbf0f36cc	-0.5594299
14	0xbf44d2a1	-0.76883894
15	0x3f432f9f	0.7624454
16	0x3fd23771	1.6423169
17	0xbe236d7b	-0.15959732
18	0xbefeaae2	-0.49739748
19	0x3ee111d7	0.43958923
20	0xbf4214e2	-0.75813115
21	0x3f8a0650	1.0783176
22	0x3f4d0143	0.8008005
23	0x3fd71e93	1.6806206
24	0x3fa3ba59	1.2791244
25	0x3fa5f12f	1.2964228
26	0x3f1c4788	0.6104665
27	0x3faad8b0	1.3347378
28	0xbe6d2eed	-0.23162432
29	0x3d2b0c00	0.04175949
30	0xbe80ce79	-0.25157526
31	0x3f5c1fb0	0.8598585
32	0xbfb13d01	-1.3846742
33	0xbf5f0955	-0.87123615
34	0xbe64ba0a	-0.22336593
35	0x3fdbd27d	1.7173611
36	0x3ea34434	0.31887972
37	0xbed95a8d	-0.42451897
38	0x3e9c8760	0.30572033
39	0xbf464bb2	-0.7745925
40	0xbfc75e87	-1.5575722
41	0x3f7ee202	0.9956361
42	0xbf6139a5	-0.87978584
43	0xbf19e481	-0.60114294
44	0xbfa31765	-1.2741514
45	0x4007dbb6	2.122785
46	0xbf9e091f	-1.2346534
47	0xbef9cfd9	-0.48791388
48	0xbf69f04e	-0.913823
49	0xbf287baf	-0.65813726
50	0x3d9fcafb	0.07802387
51	0x3f069b67	0.52580875
52	0xbef9da0d	-0.48799172
53	0x3f987ec9	1.1913692
54	0xbf5062ce	-0.81400764
55	0xbf3c6a07	-0.73599285
56	0xbfb39da0	-1.4032478
57	0x3d1378bf	0.036003824
58	0xbd82005f	-0.06347727
59	0x3f2cf519	0.6756149
60	0xbdc84efb	-0.09780689
61	0x3fec1ba8	1.844594
62	0xbf979eec	-1.1845374
63	0x3fb11825	1.3835493
64	0x3fb8fa24	1.4451337
65	0x3f5b3ddb	0.8564126
66	0x400df4f4	2.2180758
67	0x3f05ee2d	0.5231655
68	0x3eb17bac	0.34664667
69	0xbe4a1141	-0.19733144
70	0xbf86fccd	-1.0545899
71	0x3fa39558	1.2779951
72	0xbe3052ca	-0.17219082
73	0x3f061700	0.52378845
74	0x3d67ec47	0.056621816
75	0x3eda437d	0.42629614
76	0x3f133388	0.57500505
77	0xbf244809	-0.64172417
78	0xc00d35a0	-2.206398
79	0xbf4034ab	-0.75080365
80	0x3c32104d	0.010868144
81	0xbead6fac	-0.3387426
82	0xbfab9b66	-1.3406799
83	0xbf15dad8	-0.58537054
84	0x3f0943a1	0.5361882
85	0x3f064dab	0.5246226
86	0x3f9212e5	1.1412016
87	0x3d53884b	0.05164365
88	0x3f3e73a3	0.743952
89	0xbef69237	-0.48158428
90	0xbf8654e5	-1.0494658
91	0x3f1a991d	0.6038988
92	0xbfdc742a	-1.722295
93	0xbf53e8a9	-0.82776886
94	0x3faad78b	1.3347028
95	0x3ef79275	0.48353925
96	0xc0209c60	-2.5095444
97	0x3ef9db46	0.48800105
98	0x3f48daaf	0.78458685
99	0x3ceaad8d	0.028647209
100	0x3f24088a	0.6407553
101	0x3f154fb4	0.5832474
102	0x3f88910e	1.0669267
103	0xbee67a83	-0.45015344
104	0xbe3db6c1	-0.18526746
105	0x3f40b4ce	0.75275886
106	0x3ecf3c6a	0.4047578
107	0x3e36bfca	0.17846599
108	0x3e87a238	0.2649095
109	0x3fa2f72e	1.2731683
110	0xbaabd149	-0.0013108636
111	0xbe9b71f0	-0.30360365
112	0xbfba7fee	-1.4570291
113	0xbdd19523	-0.10233524
114	0xbf196218	-0.59915304
115	0x3ef440bd	0.4770564
116	0x3f39e6c0	0.7261772
117	0x3dbaadd4	0.09115186
118	0xbec7338e	-0.3890652
119	0x3f072589	0.5279165
120	0xbc4fd6c1	-0.012685479
121	0x3e769dcc	0.24083632
122	0x3e07b75a	0.13253537
123	0x3f43a546	0.7642406
124	0x3f8c2947	1.0950097
125	0x3eae0630	0.33989096
126	0x3f384fc9	0.7199674
127	0x3ed2a405	0.41140762
128	0x3ffbbd4a	1.9667141
129	0x3f7f76b5	0.9979051
130	0xbfbc0304	-1.468842
131	0xbf95a413	-1.1690696
132	0xbe36693b	-0.1781358
133	0x3fd5eff6	1.6713855
134	0x3f2ddff1	0.6791983
135	0x3f1bd1c3	0.60866946
136	0x3f965d3d	1.1747204
137	0xbc9d5b2a	-0.01920851
138	0xbfe956ce	-1.8229616
139	0x3f76c134	0.96388555
140	0xbec69691	-0.38786748
141	0x3f88d568	1.0690126
142	0xbf3afe83	-0.73044604
143	0x3f2f2c94	0.68427396
144	0xbf802d6f	-1.0013865
145	0x3f799f69	0.97508866
146	0x3fd3b159	1.6538497
147	0x3fbf28aa	1.4934285
148	0x3e9d2772	0.30694157
149	0xbe74d732	-0.23910215
150	0xbf417f38	-0.75584745
151	0x3e0c231d	0.1368527
152	0x3ebae038	0.3649919
153	0x3f80a512	1.0050375
154	0xbf043182	-0.5163804
155	0x3fd1b8cd	1.6384522
156	0xc0213362	-2.5187612
157	0xbed2b2e8	-0.4115212
158	0xbf9c2faa	-1.2202046
159	0x3f5a18c9	0.8519407
160	0xbff81f2b	-1.9384512
161	0x3e8af676	0.2714116
162	0x3c73e5b9	0.014886313
163	0xbecaea1c	-0.39631736
164	0x3e9e1f37	0.3088319
165	0xbf44db62	-0.7689725
166	0x3e667b8b	0.22508065
167	0xbf90ebba	-1.1321938
168	0xbfcf6fe1	-1.6206018
169	0x3fb25b2d	1.3934075
170	0x3fa8add0	1.3178043
171	0x3cb305ef	0.021853415
172	0xbfcb461e	-1.5880773
173	0x3f4b1a4c	0.79337
174	0x3f540d1a	0.8283249
175	0x400367d7	2.053213
176	0x3c4e39c9	0.012587019
177	0x3b1b7030	0.0023717992
178	0xbf58b643	-0.8465311
179	0xbdc7e6bc	-0.09760806
180	0xbf777b29	-0.966723
181	0xbfd02d54	-1.6263833
182	0xbf96b203	-1.1773075
183	0xbf107101	-0.5642243
184	0xbf0c984d	-0.5491989
185	0xbfc53568	-1.5406923
186	0xbffaa870	-1.9582653
187	0x3e207eb8	0.1567334
188	0x3f888c69	1.066785
189	0xbf0c6e24	-0.5485556
190	0x3f3b1195	0.73073703
191	0x3f4003f6	0.75006044
192	0x3fe7c598	1.8107176
193	0xbf766516	-0.96247995
194	0x3f7f75d7	0.99789184
195	0xbe7232c8	-0.23652184
196	0xbf9b44dd	-1.213039
197	0x3ec7a2c2	0.38991362
198	0x3f00c4bb	0.50300187
199	0x3fb2babc	1.3963237
200	0x3f117953	0.5682575
201	0x4009021d	2.140754
202	0xbf0a5d42	-0.5404855
203	0xbf7908ce	-0.9727906
204	0x3e651f9d	0.22375341
205	0x3f8af36d	1.0855538
206	0x3facc2a8	1.3496904
207	0x3f013979	0.5047832
208	0xbf5a1a4f	-0.85196394
209	0xbf86205c	-1.0478625
210	0xbef5f2e8	-0.48036885
211	0xbf23039f	-0.636774
212	0x3e4f694d	0.20255013
213	0x3ef9c918	0.48786235
214	0xbe43c77b	-0.19119065
215	0xc016988f	-2.3530614
216	0xbee4f31d	-0.4471673
217	0x3f90b49f	1.1305121
218	0xbfe8cc43	-1.8187336
219	0x3fc1a9cc	1.5129943
220	0x3eb2dc55	0.34933725
221	0xbef5d126	-0.4801113
222	0x3f85346e	1.0406625
223	0x3fdc8849	1.7229091
224	0xbcded2f4	-0.0272002
225	0x3fdaff3d	1.7109143
226	0x3d8b87e6	0.0681303
227	0xbf8ca717	-1.0988492
228	0xbf16fb58	-0.5897727
229	0x3c931dde	0.017958578
230	0x3ee0b426	0.43887442
231	0x3ffb954f	1.965494
232	0xbdc66d08	-0.09688765
233	0xbf703f15	-0.93846256
234	0xc00599e9	-2.087519
235	0xbf906a30	-1.1282406
236	0xbc531f92	-0.012885945
237	0x3dfa6346	0.12225966
238	0x3e28b943	0.16476922
239	0x3ee7f62f	0.4530501
240	0xbf72dc0e	-0.94867027
241	0x3e47f5d2	0.19527367
242	0xbf14e55b	-0.5816247
243	0x3edd8ad9	0.43269995
244	0xbf682a6d	-0.90689737
245	0xbd66ea13	-0.056375574
246	0xbec3c440	-0.38235664
247	0x3fc03400	1.5015869
248	0x3fa4dee0	1.2880516
249	0xbf40d722	-0.75328267
250	0x3f60731f	0.8767566
251	0x3f0eab93	0.5573055
252	0x3f14d512	0.5813762
253	0x3f1b0be2	0.60565007
254	0x3ef6bddf	0.48191735
255	0x3e8c221c	0.27369773

gat_layers.0.W.weight f4 [128, 128]
0	0xbddd3587	-0.10801225
1	0xbd0c2179	-0.03421161
2	0x3d938b7e	0.072043404
3	0x3d63c45a	0.055607177
4	0xbddc9dbd	-0.10772274
5	0xbd825324	-0.06363514
6	0xbcb042b7	-0.021516187
7	0x3d2b6e56	0.04185327
8	0xbccee58a	-0.025255937
9	0xbd92e1de	-0.07171987
10	0x3c6a9dc3	0.01431984
11	0x3d2c8796	0.042121492
12	0xbd53f317	-0.0517455
13	0xbd72ec52	-0.059307404
14	0x3d680b40	0.056651354
15	0x3c7cb19f	0.015423208
16	0xbca5caff	-0.020238398
17	0xbd3cb57f	-0.046071526
18	0x3da5cbbb	0.08095499
19	0xbd03c20b	-0.032167476
20	0xbc06be63	-0.008224103
21	0xbca5e44d	-0.020250464
22	0x3af14261	0.0018406623
23	0xbcca42d2	-0.024690066
24	0xbd5422d2	-0.05179102
25	0xbc0f35f7	-0.008740894
26	0x3cf1b811	0.029506715
27	0xbd93cddb	-0.07216998
28	0x3e06944f	0.13142513
29	0x3dbb1cb3	0.09136333
30	0x3ddf490e	0.10902606
31	0x3c63c57d	0.013902065
32	0x3da75546	0.081705615
33	0xbd09a42e	-0.03360384
34	0xbdd1a80e	-0.10237132
35	0xbca0b1c7	-0.01961602
36	0xbd9307e5	-0.0717924
37	0xbcf0e6c1	-0.029406907
38	0xbc871f2d	-0.016494358
39	0x3ddca5af	0.10773789
40	0xbd0d1e3a	-0.034452654
41	0xbdcb590a	-0.09929092
42	0xbdc215a2	-0.094767824
43	0xbd908b21	-0.07057787
44	0x3dbe77df	0.09300207
45	0xbddcf212	-0.10788359
46	0xbe03f806	-0.12887582
47	0xbdbcafda	-0.092132285
48	0x3d3e3104	0.046433464
49	0xbd4a5f82	-0.04940749
50	0xbae0e435	-0.0017157855
51	0x3e1e94ec	0.15486497
52	0x3d301f10	0.042998374
53	0xbd3ad7a7	-0.04561582
54	0x3c8bd449	0.017068999
55	0x3d956ea8	0.07296497
56	0x3da450df	0.080232374
57	0xbcd376cc	-0.025813483
58	0xbcc829b4	-0.024433948
59	0xbd0d0eb0	-0.034437835
60	0xbc5ac2a3	-0.013352069
61	0xbd0b8210	-0.034059584
62	0x3cd8b3f5	0.026452998
63	0xbd487bed	-0.04894631
64	0x3bca45e6	0.0061728833
65	0x3d79c2ea	0.0609769
66	0x3cc79684	0.024363764
67	0xbbad6088	-0.0052910484
68	0xbc81478f	-0.015781192
69	0xbdd13785	-0.10215668
70	0x3d6fc0f5	0.058533628
71	0xbd2db11a	-0.042405225
72	0xbbe5d743	-0.0070141866
73	0x3d872e77	0.06600659
74	0xbcc11854	-0.02357117
75	0xbd30d7b6	-0.043174468
76	0xbd05d531	-0.03267402
77	0x3d291bc0	0.04128623
78	0x39d5c79c	0.00040775246
79	0xbd7ad38f	-0.061236914
80	0x3de6cd39	0.11269612
81	0x3d13568f	0.03597122
82	0x3d366afe	0.04453563
83	0x3b75c66f	0.003750231
84	0xbe4750e6	-0.19464454
85	0xbda82002	-0.0820923
86	0xbd232999	-0.039834592
87	0x3d745164	0.059647933
88	0x3cfce6c4	0.030871756
89	0x3c41a970	0.011820182
90	0xbc6626ce	-0.014047338
91	0xbcdd47bf	-0.02701175
92	0xbe14d4bf	-0.14534281
93	0xbc99ca1b	-0.01877313
94	0x3d3544a4	0.044254914
95	0xbd7ca0ef	-0.061676916
96	0xbd187303	-0.03721906
97	0x39ac0843	0.00032812552
98	0xbd91d7c5	-0.07121233
99	0x3d0a0350	0.033694565
100	0xbd501ab6	-0.050806724
101	0xbcd913fd	-0.026498789
102	0xbd71cb20	-0.059031606
103	0xbdd31f78	-0.103087366
104	0xbe0c055a	-0.13673916
105	0xbd0cb77a	-0.034354664
106	0x3e261eea	0.1622273
107	0x3dacb9ae	0.08433853
108	0xbc48d752	-0.012258368
109	0x3df80bcd	0.12111626
110	0x3d630f20	0.055434346
111	0x3de9e88f	0.1142131
112	0x3d2fe322	0.04294122
113	0xbcb411c8	-0.021981135
114	0x3da260b6	0.079286024
115	0x3d86eaf5	0.06587783
116	0x3ba1867c	0.004929362
117	0xbce5b859	-0.028042005
118	0x3e0df922	0.13864568
119	0xbd2327e2	-0.039832957
120	0x3d95a9ae	0.073077545
121	0x3e00a4ed	0.12562914
122	0xbc216196	-0.009849926
123	0xbdce66bf	-0.10078191
124	0x3ccc23b5	0.02491937
125	0x3c3f20a6	0.011665499
126	0x38deac36	0.00010617862
127	0x3b3bdeed	0.002866681
128	0x3d87ffc6	0.06640582
129	0x3d6f2143	0.05838133
130	0xbbcbc5ae	-0.0062186336
131	0xbd5ad595	-0.053426344
132	0x3e164aaa	0.1467692
133	0xbd7106e4	-0.058844462
134	0xbdb14e02	-0.08657457
135	0x3d80b96a	0.06285365
136	0xbdca05fd	-0.098644234
137	0x3d707163	0.058701884
138	0xbd53b8d1	-0.051689927
139	0x3d8f61da	0.070010856
140	0x3d89e9dd	0.06734059
141	0xbe636cac	-0.22209424
142	0x3d4dd147	0.05024841
143	0x3d3f361c	0.046682462
144	0x3ca80bd6	0.020513456
145	0x3d9c937a	0.076453164
146	0xbe2699d0	-0.16269612
147	0xbd57fa34	-0.052728847
148	0xbdeb182f	-0.11479222
149	0x3dfb776d	0.12278638
150	0x3cebf246	0.028802048
151	0x3d709678	0.05873725
152	0xbd949153	-0.07254281
153	0xbdce9e4e	-0.10088788
154	0x3d3267b9	0.04355595
155	0xbd9bf9ee	-0.0761603
156	0xbd414deb	-0.04719345
157	0x3c9bb7ca	0.019008536
158	0xbad56708	-0.0016281316
159	0xbc882b43	-0.016622191
160	0x3cdc2fca	0.026878256
161	0xbd93fdee	-0.072261676
162	0x3c97eb3c	0.018544786
163	0x3d8d924f	0.06912672
164	0xbd8bddd8	-0.06829423
165	0x3d126389	0.035739455
166	0xbdcd1cef	-0.10015284
167	0xbbe92f9e	-0.007116272
168	0x3d44199b	0.04787598
169	0x3d551252	0.052019425
170	0x3d2e7b06	0.042597793
171	0x3d8f36c0	0.069928646
172	0x3bea3d65	0.007148432
173	0xbd50f373	-0.05101342
174	0xbd2e6595	-0.042577345
175	0xbd21ba78	-0.03948447
176	0x3db8ae8c	0.09017667
177	0x3e241b6b	0.16026084
178	0x3dc206d9	0.09473962
179	0xbc8c5eee	-0.01713511
180	0x3d91e1d1	0.07123149
181	0x3dbd799b	0.0925171
182	0xbc116854	-0.008874971
183	0x3df5c97a	0.12001319
184	0xbdcb5e0e	-0.09930049
185	0x3dccc103	0.099977516
186	0x3d5d1b7e	0.053981297
187	0xbe031277	-0.12800013
188	0xbd57ccd3	-0.05268557
189	0x3a600f63	0.00085472147
190	0x3a9d935c	0.0012022066
191	0xbd066ccb	-0.032818597
192	0xbd8003d9	-0.06250734
193	0x3caf9b76	0.021436434
194	0xbc36d5ff	-0.011159419
195	0xbe08c995	-0.13358147
196	0x3db9d60a	0.09074028
197	0xbd2be604	-0.041967407
198	0xbdd3b310	-0.10336888
199	0xbd0be585	-0.034154434
200	0xbc91820b	-0.017762205
201	0xbc91520f	-0.017739324
202	0x3e32a927	0.17447339
203	0x3e2b1164	0.16705853
204	0x3cb90c09	0.022588747
205	0xbd8c0f8d	-0.068389036
206	0xbd2ae226	-0.04171958
207	0xbe00a0ef	-0.12561391
208	0x3d2c1c19	0.042018984
209	0x3c70bd90	0.014693633
210	0x3d86b1a4	0.06576851
211	0x3e073fdb	0.13207953
212	0x3c8c5ab7	0.0171331
213	0xbe04dde8	-0.12975276
214	0x3d1a0259	0.037599895
215	0x3cb25fec	0.021774255
216	0x3d7dd6fb	0.0619726
217	0xbcbe4df8	-0.023230538
218	0x3d2d8940	0.04236722
219	0xbb3f2f1a	-0.0029172362
220	0xbd12f188	-0.035874873
221	0x3dc6c528	0.09705573
222	0xbb24d00d	-0.0025148422
223	0x3d9927f5	0.07478324
224	0x3da708fc	0.081560105
225	0x3d353385	0.044238586
226	0xbd1b4246	-0.037905
227	0xbcefcc04	-0.029272087
228	0x3d0924fa	0.03348253
229	0x3d2c9e4d	0.042143155
230	0xbda4121a	-0.08011265
231	0xbc1f9b4d	-0.009741616
232	0x3da43fe8	0.08020002
233	0xbd50bfc9	-0.05096415
234	0xbd978c9c	-0.07399866
235	0x3d38fe2f	0.045164283
236	0xbe1616e9	-0.14657177
237	0xbd80dfac	-0.06292662
238	0x3d0b3ed5	0.03399547
239	0xbde2f9ec	-0.11082825
240	0x3da26dc3	0.07931092
241	0x3daffffb	0.08593746
242	0xbc5e4194	-0.01356544
243	0x3cff561e	0.031168994
244	0x3d557bd2	0.052120037
245	0x3e20c2b6	0.15699276
246	0xbbd2fbf6	-0.0064387275
247	0xbde41e9f	-0.11138653
248	0xbddb7f4c	-0.10717639
249	0xbd66ad5b	-0.05631767
250	0x3d0ea948	0.034829408
251	0x3975a5f9	0.0002342685
252	0xbac0d30a	-0.0014711332
253	0xbdb89a83	-0.09013846
254	0x3cd9028e	0.026490476
255	0xbdbfc66e	-0.09364019

gat_layers.0.W.bias f4 [128]
0	0x3d08a612	0.033361502
1	0xbe91966f	-0.28435084
2	0xbe2abccf	-0.16673587
3	0xbe0b2d16	-0.13591418
4	0xbd1b026c	-0.037844107
5	0x3b950d3e	0.0045486977
6	0xbe38bf92	-0.18041828
7	0x3d535368	0.051593214
8	0xbdd8fde3	-0.105953
9	0x3de61166	0.11233787
10	0xbc21ce20	-0.009875804
11	0xba4cd953	-0.0007814366
12	0xbe01a426	-0.12660274
13	0x3e063c7b	0.13109009
14	0x3dbb7977	0.09154027
15	0xbb5bf360	-0.003356181
16	0xbc0fad37	-0.008769325
17	0x3d29adc1	0.04142547
18	0x3de349a5	0.11098031
19	0x3c670d7a	0.014102334
20	0xbdbac1df	-0.09119009
21	0x3d2171f4	0.039415315
22	0x3d7abcee	0.061215334
23	0x3c9f4b02	0.019444946
24	0x3ca411b3	0.02002797
25	0x3d696bcc	0.05698757
26	0x3c682940	0.014169991
27	0xbd920391	-0.071295865
28	0x3d0309ca	0.031991757
29	0x3cf7b9f1	0.030240031
30	0x3d8e1547	0.06937652
31	0xbd729cf7	-0.059231725
32	0xbdbbfdf2	-0.091792956
33	0xbe28a56b	-0.16469352
34	0x3d18eda6	0.037336014
35	0x3d89a5ee	0.06721102
36	0xbcadb585	-0.02120472
37	0x3c586fe3	0.01321027
38	0x3cb5dd7f	0.022200344
39	0x3ccb8822	0.024845187
40	0xbe2dca3f	-0.16971682
41	0xbdbacae4	-0.091207296
42	0x3db2c3fd	0.08728788
43	0xbb4d603f	-0.0031337885
44	0xbb4e9e00	-0.003152728
45	0x3df44641	0.11927462
46	0xbdddc301	-0.1082821
47	0x3cb34356	0.021882694
48	0x3d1d548a	0.0384107
49	0xbe4419f0	-0.1915052
50	0x3d888308	0.06665617
51	0xbe4263ef	-0.18983434
52	0xbc1c2ed6	-0.009532651
53	0x3d041d01	0.032254223
54	0xbc71559b	-0.014729883
55	0x3ce57e86	0.028014433
56	0x3da05d90	0.07830346
57	0xbe165c9e	-0.14683768
58	0x3dbba611	0.09162534
59	0x3b4a224b	0.0030843194
60	0xbe014073	-0.12622242
61	0xbd5ab04c	-0.053390786
62	0x3d32aa02	0.043619163
63	0x3da6afa3	0.08138969
64	0x3e09e851	0.13467528
65	0xbe15b466	-0.14619598
66	0xbab9dae9	-0.001417962
67	0x3d6dec04	0.05808641
68	0xb99e52d0	-0.00030197809
69	0xbdd0b614	-0.10190979
70	0xbdb63fd9	-0.08898897
71	0x3d665287	0.056231048
72	0xbd6b5c35	-0.057460982
73	0xbe0ade90	-0.13561463
74	0x3dad5c71	0.084648974
75	0x3cf39bbd	0.029737348
76	0xbd05be4c	-0.032652184
77	0xbd180a2b	-0.037119072
78	0xbe0190e4	-0.12652928
79	0xbda9f88e	-0.08299361
80	0x3dc2eb28	0.09517509
81	0xbe3463f3	-0.17616253
82	0x3da3459f	0.079722635
83	0x3dca0099	0.09863395
84	0xbe1c8eab	-0.15288799
85	0x3bc02752	0.0058640623
86	0xbe260479	-0.16212644
87	0xbd2025c3	-0.039098512
88	0x3d9bb8dd	0.07603619
89	0xbe369972	-0.17831972
90	0x3d9e154c	0.07718906
91	0x3c37d520	0.011220247
92	0xbd162c2d	-0.036663223
93	0xbe011937	-0.12607275
94	0x3d2f19ce	0.04274922
95	0xbd04e7d9	-0.03244767
96	0x3be9645e	0.0071225604
97	0x3d918e24	0.07107189
98	0x3dc01ae0	0.09380126
99	0x3dcd46b1	0.10023249
100	0xbd15c896	-0.036568247
101	0xbe4d0190	-0.20020127
102	0xbe708f4b	-0.23492162
103	0x3dd39a89	0.103322096
104	0x3cfff450	0.031244427
105	0x3c9a6315	0.018846074
106	0xbddf8e18	-0.10915774
107	0xbdba6566	-0.091013715
108	0x3d53f3c0	0.05174613
109	0xbe4fdef7	-0.20299898
110	0xbdf82752	-0.12116875
111	0x3e1431d9	0.1447214
112	0x3d218a6b	0.039438646
113	0x3e027f12	0.12743786
114	0xbd8b5702	-0.06803705
115	0x3d218e0f	0.03944212
116	0x3df03881	0.11729527
117	0xbe0fe782	-0.14053157
118	0x3df21bc6	0.118217036
119	0x3cf59aff	0.029981134
120	0xbd3a98c6	-0.045555852
121	0x3cab3fde	0.020904478
122	0xbd910d4f	-0.070826165
123	0xbeae6f2f	-0.340692
124	0xbe0af465	-0.13569792
125	0xbe31517b	-0.17316239
126	0xbd1fb0eb	-0.03898708
127	0x3c99d239	0.018777

gat_layers.0.attn.weight f4 [1, 256]
0	0xbd1f32d1	-0.03886682
1	0x3d85b122	0.06527926
2	0x3bb237ef	0.0054387967
3	0xbc529481	-0.012852789
4	0xbbc614f3	-0.006044978
5	0x3e5b12a6	0.21393833
6	0x3d0f0734	0.03491898
7	0x3d74d7dd	0.059776176
8	0xbd035294	-0.032061175
9	0xbc32ce68	-0.010913469
10	0x3d15d182	0.036576755
11	0x3d0af09b	0.033920866
12	0xbc55e229	-0.013054409
13	0xbd2e6867	-0.042580035
14	0x3c94eaea	0.018178422
15	0x3d804db1	0.062648185
16	0xbdfc507a	-0.12320037
17	0x3e1ef765	0.15524061
18	0x3e35ac2c	0.1774146
19	0x3d0938e5	0.033501524
20	0xbd595d8d	-0.053067733
21	0x3d2dfb2e	0.04247587
22	0x3cd1007d	0.025512928
23	0xbe347e1d	-0.17626233
24	0xbe1b6897	-0.15176617
25	0x3dcff320	0.10153794
26	0x3e2ec82c	0.17068547
27	0x3e0a4ccb	0.13505857
28	0x3d0bf363	0.03416766
29	0x3d2fd57c	0.042928204
30	0x3d08d2c3	0.033404123
31	0x3d009321	0.031390313
32	0xbdbf44f4	-0.09339324
33	0xbdbe7d87	-0.09301286
34	0x3e099e8b	0.13439386
35	0x3dbd0149	0.09228761
36	0xbcca4038	-0.024688825
37	0xbd703030	-0.058639705
38	0x3c6bb339	0.014385992
39	0x3cfe8418	0.031068847
40	0xbc2ea8d0	-0.010660365
41	0xbe266867	-0.16250764
42	0x3d7fcbec	0.062450334
43	0x3d4f5ea1	0.050627355
44	0x3dd3d14f	0.10342657
45	0x3dce0504	0.100595504
46	0xbc206208	-0.0097889975
47	0x3de9a876	0.114090845
48	0xbd82dd03	-0.06389811
49	0x3d1cb385	0.03825714
50	0x3e13c4e6	0.1443058
51	0xbd49a348	-0.049227983
52	0x3ceb428f	0.028718261
53	0x3db8fac5	0.090322055
54	0xbdbe4b43	-0.09291699
55	0xbd576d44	-0.05259444
56	0x3d23f79e	0.040031068
57	0x3cd556b5	0.026042322
58	0xbd28f8c1	-0.041252855
59	0xbe03614a	-0.12830082
60	0x3c29b406	0.010357862
61	0x3e028ecf	0.1274979
62	0x3d3cda17	0.046106424
63	0x3d898de0	0.06716514
64	0xbce49a62	-0.027905647
65	0x3bbe93ea	0.0058159726
66	0x3cc5aa61	0.024129095
67	0xbd0de7c6	-0.034644864
68	0x3ba449a8	0.0050136633
69	0xbdd7c5a8	-0.10535747
70	0x3d314c4c	0.043285653
71	0x3ca68268	0.020325854
72	0xbc7263eb	-0.01479433
73	0xbdcedc83	-0.10100653
74	0xb8c09740	-9.183446e-05
75	0x3b6ec0d6	0.0036430857
76	0x3ac2876e	0.0014841387
77	0x3db239ab	0.087024055
78	0xbcfe6b9c	-0.031057172
79	0x3e0baf31	0.13641049
80	0x3da09930	0.07841718
81	0x3db892b8	0.090123594
82	0x3d002ae5	0.031290907
83	0x3d8a06c3	0.06739571
84	0xbcc161de	-0.023606237
85	0x3caebb63	0.021329587
86	0x3db4430e	0.08801852
87	0xbc03484c	-0.008012842
88	0xbc52a477	-0.012856594
89	0x3c1f3249	0.009716579
90	0x3d8f427c	0.06995103
91	0x3d0b9fd8	0.034087986
92	0x3d8a961a	0.06766911
93	0x3dbecb51	0.09316123
94	0x3e3b2739	0.18276681
95	0xbd9a81c7	-0.07544284
96	0xbda5653e	-0.08075951
97	0xbe4708e1	-0.19436981
98	0x3ce37403	0.02776528
99	0xbd0bea47	-0.03415897
100	0x3c522f90	0.012828723
101	0xbced9359	-0.029000925
102	0x3cf0e2b1	0.02940497
103	0xbc90859b	-0.017641833
104	0x3d82dd20	0.063898325
105	0x3d14368e	0.03618484
106	0xbd768964	-0.06018962
107	0x37a77d8f	1.996642e-05
108	0x3d4b0f14	0.049574926
109	0x3dba2655	0.090893425
110	0x39a9b2da	0.00032367447
111	0xbce00add	-0.02734893
112	0x3e17c707	0.14822017
113	0xbd909689	-0.07059962
114	0x3cd125b9	0.025530683
115	0x3e2b34b3	0.16719322
116	0x3de48465	0.11158065
117	0x3c831552	0.016001377
118	0xbd8313a8	-0.064002335
119	0xbd3100a8	-0.043213516
120	0x3e04f8ed	0.12985583
121	0x3d295822	0.041343816
122	0x3dcb5adb	0.09929439
123	0x3dd426ce	0.10358964
124	0x3cde6158	0.027146026
125	0xbdb483c5	-0.088141955
126	0x3e7337b9	0.23751725
127	0x3d00ce27	0.031446602
128	0xba03c3c2	-0.00050264236
129	0xb9b74ea4	-0.00034963072
130	0xb9839192	-0.00025094725
131	0x3992cdf4	0.00028000737
132	0x3b4c6ba5	0.003119209
133	0xbb003c0a	-0.0019567036
134	0xbae51d7a	-0.0017480098
135	0xbc10f928	-0.008848466
136	0x3abdc1ba	0.0014477291
137	0xbb9fbf03	-0.0048750653
138	0xbcb6a328	-0.022294596
139	0x3bd03f3b	0.006355194
140	0xb90bb22e	-0.0001332245
141	0xbbbf3de7	-0.0058362368
142	0xbb9fcc6b	-0.0048766634
143	0x38b51ccc	8.6361164e-05
144	0x3a220b3a	0.00061814825
145	0x3c71f0e3	0.0147669045
146	0xbb181db8	-0.0023211073
147	0xbb8d934d	-0.004320538
148	0xb9efb965	-0.00045723762
149	0xbb50d086	-0.003186257
150	0xbcd62735	-0.026141742
151	0x3ac6a61f	0.0015155709
152	0xb95b6b40	-0.00020925421
153	0x3c5abd5e	0.013350813
154	0xbd5773f3	-0.052600812
155	0xb9ab6b37	-0.00032695543
156	0xbb386c29	-0.002814064
157	0xbb69d807	-0.003568174
158	0xbb61e2de	-0.0034467499
159	0xba31d6cd	-0.0006784022
160	0x39a59d08	0.0003158825
161	0x3ab74fff	0.0013985633
162	0xbbbdafdd	-0.005788787
163	0xbbc75f7b	-0.00608438
164	0xbb88cad2	-0.0041745687
165	0xbb58d50e	-0.0033085975
166	0xbafb667b	-0.0019180322
167	0xbca9f067	-0.020744516
168	0x39793e60	0.00023769727
169	0x3ae66419	0.0017577439
170	0xbb127823	-0.002234944
171	0x3b1192ac	0.0022212667
172	0xbb8ccd3e	-0.0042969277
173	0xbb42eaf9	-0.0029742105
174	0xb7695710	-1.3908153e-05
175	0xbb837a79	-0.0040124026
176	0xbb326323	-0.0027219735
177	0x3a8adf72	0.0010595156
178	0xbd016efc	-0.031599984
179	0x3a404cf8	0.0007335688
180	0xbd1de933	-0.038552474
181	0x3897b561	7.2340255e-05
182	0xbb94044e	-0.0045171147
183	0x3b0fd4d0	0.0021946914
184	0xbc10e33e	-0.008843241
185	0x3a518eae	0.0007993978
186	0x3c27fc21	0.010252983
187	0x3b030ca2	0.0019996543
188	0x369604c0	4.4709013e-06
189	0x3bfa64ed	0.007641426
190	0x3a6b7dd3	0.0008983288
191	0x3c7da279	0.015480631
192	0x3a89c324	0.0010510427
193	0x39f81854	0.00047320372
194	0xbb02c75f	-0.001995526
195	0xbc5eb89f	-0.013593822
196	0xb9acffc5	-0.0003299696
197	0x3b35b58e	0.0027726623
198	0xba7d0bb9	-0.0009652931
199	0xbbe8f41f	-0.0071091796
200	0xb96e4d58	-0.00022726262
201	0x3a2bc92e	0.00065531104
202	0xbbed82bf	-0.007248252
203	0xbb14f0dc	-0.0022726571
204	0xbb4dda63	-0.0031410686
205	0xba45b13d	-0.0007541364
206	0x386c94e0	5.6405435e-05
207	0xba83e195	-0.0010061736
208	0xbd1cfef8	-0.038329095
209	0xb90cea5d	-0.00013438748
210	0xbbd19828	-0.0063963123
211	0x3782cd2c	1.5592748e-05
212	0x39c490cc	0.00037491915
213	0xbad67b94	-0.0016363733
214	0xba0f39a2	-0.0005463605
215	0x3ccc93fc	0.024972908
216	0xba4625c4	-0.0007558728
217	0xbb103aec	-0.0022007776
218	0xbb6435a5	-0.0034822014
219	0xbafc140f	-0.0019232052
220	0xbb24a75b	-0.0025124166
221	0xba84e945	-0.001014032
222	0xbbbebb92	-0.0058207
223	0xba17a9b6	-0.0005785482
224	0xba8376bd	-0.0010029894
225	0xbbd1843b	-0.006393937
226	0xbbc8dde8	-0.006129969
227	0xbb35af38	-0.0027722847
228	0xbb87f826	-0.0041494546
229	0xb96f7f64	-0.00022840273
230	0xbb16204a	-0.002290743
231	0x3b891bea	0.004184236
232	0xba82e835	-0.0009987416
233	0x3c3e20c8	0.011604495
234	0xb9e14d44	-0.00042972912
235	0x3aa1c410	0.0012341756
236	0xbac9524d	-0.001535961
237	0xb91f3722	-0.0001518396
238	0x3838d0ad	4.4063363e-05
239	0xba6143b8	-0.000859316
240	0x3bd25366	0.0064186333
241	0xb9315634	-0.00016912149
242	0xba4b95a4	-0.00077661336
243	0xbc76ac65	-0.0150557505
244	0x3b0c006d	0.0021362558
245	0x39e35a5e	0.00043364143
246	0x3c9c34e9	0.019068198
247	0xba855639	-0.0010172791
248	0xbac786d1	-0.0015222674
249	0xbb2395fc	-0.0024961224
250	0x3906217f	0.00012791714
251	0xba29b9ae	-0.0006474507
252	0x38f01ed4	0.00011449834
253	0x391b90c6	0.00014835884
254	0xbb333cfb	-0.002734958
255	0xbb8c28c8	-0.0042773224

gat_layers.1.W.weight f4 [128, 128]
0	0x3e89437c	0.268093
1	0xbdba3822	-0.09092738
2	0xbe0423fc	-0.12904352
3	0xbe1e2dad	-0.15447111
4	0x3c32bb07	0.010908849
5	0xb98522dc	-0.0002539371
6	0xbe1ba751	-0.15200545
7	0xbd36c33c	-0.044619784
8	0xbdaf06c5	-0.08546213
9	0xbdab44e2	-0.08362748
10	0xbd4f93e5	-0.050678153
11	0xbd1f774b	-0.038932126
12	0xbd9e0833	-0.077164076
13	0x3d1d0b05	0.038340587
14	0x3c179842	0.00925261
15	0xbe17d954	-0.14828998
16	0xbe03924d	-0.12848778
17	0xbd742959	-0.059609745
18	0xbdf65649	-0.12028176
19	0x3d294a0a	0.041330375
20	0xbdc2d1d6	-0.09512679
21	0xbd473edf	-0.048643943
22	0x3cb092c0	0.02155435
23	0xbdbc2a25	-0.09187726
24	0x3e2dd815	0.1697696
25	0xbd1a8e24	-0.037733212
26	0x3a3a8387	0.0007114936
27	0xbe28a087	-0.16467486
28	0x3d78a3ed	0.060703207
29	0xbdc00ffc	-0.09378049
30	0x3d0bdd64	0.03414668
31	0xbe1677a3	-0.14694075
32	0xbdf8b206	-0.1214333
33	0xbdb5d57b	-0.08878609
34	0x3c8c7c9d	0.017149264
35	0x3c825168	0.015907958
36	0x3cb1947a	0.021677244
37	0x3d5fdbd2	0.054652996
38	0xbd34824a	-0.044069566
39	0xbd3987c1	-0.04529548
40	0xbbfba314	-0.0076793525
41	0x3bd57ecd	0.00651536
42	0x3d0d16a1	0.03444541
43	0xbd7951d0	-0.060869038
44	0xbdca18f9	-0.098680444
45	0x3de30c35	0.11086313
46	0xbdd29911	-0.10283101
47	0xbdea5564	-0.11442068
48	0x3eb7858e	0.35844082
49	0xbd0a8177	-0.033814874
50	0xbdfda8af	-0.123856895
51	0xbe0c6f6e	-0.13714382
52	0xbd13e0b5	-0.03610297
53	0xbdd2efd1	-0.102996476
54	0x3e4b456e	0.19850704
55	0xbd5ccf6e	-0.053908758
56	0x3cbe76ed	0.023250068
57	0xbddc312b	-0.107515655
58	0x3d81b854	0.06333986
59	0xbde654fb	-0.112466775
60	0xbe046638	-0.12929618
61	0xbd87082d	-0.06593356
62	0x3d31101d	0.043228257
63	0xbdd40a67	-0.103535466
64	0xbd682096	-0.0566717
65	0x3c351494	0.0110522695
66	0xba498f19	-0.0007688865
67	0xbd6e0565	-0.058110613
68	0xbdfeae7e	-0.124356255
69	0xbb59b504	-0.0033219466
70	0xbd03886a	-0.032112516
71	0x3da32f8f	0.079680555
72	0xbe1414af	-0.14461015
73	0xbdfb1c54	-0.122612625
74	0x3d945fb8	0.072448194
75	0x3da14f9d	0.07876513
76	0xbc9120f1	-0.017715903
77	0x3c7d5863	0.015462968
78	0xbd1c8280	-0.038210392
79	0xbda369c4	-0.079791576
80	0xbd89baf1	-0.06725109
81	0xbcbb4f94	-0.022865094
82	0xbd33fa32	-0.043939777
83	0x3d8cf00a	0.06881721
84	0xbe29fb33	-0.16599731
85	0xbcdd2e2b	-0.026999554
86	0x3cac8418	0.021059081
87	0xbd6d2041	-0.057892088
88	0x3e12f746	0.1435214
89	0xbd87ea64	-0.06636503
90	0xbcc32487	-0.023821129
91	0x3dc0c7bb	0.094130956
92	0xbd9c19d5	-0.076221146
93	0xbd09fac9	-0.033686433
94	0xbdbb9262	-0.0915878
95	0x3d14f9ab	0.036370914
96	0x3e07680e	0.13223287
97	0x3cd4b786	0.025966417
98	0xbdb21451	-0.08695281
99	0x3b3b72df	0.0028602404
100	0x3d40d801	0.047080997
101	0xbe24c6ba	-0.16091433
102	0xbdbf36ae	-0.09336601
103	0x3cb21bcf	0.021741776
104	0xbdd0d783	-0.101973556
105	0xbc401490	-0.0117236525
106	0xbd44013a	-0.047852732
107	0xbd427a45	-0.047479887
108	0xbdb0ebad	-0.086387016
109	0xbd349c98	-0.044094652
110	0x3d03830e	0.032107405
111	0xbd61c271	-0.055117074
112	0xbd991db8	-0.074763715
113	0x3d948b3e	0.07253121
114	0xbd416269	-0.047212992
115	0x3d1456c4	0.03621556
116	0xbe140fbb	-0.14459126
117	0xbdd09d3c	-0.1018624
118	0xbdf9b7eb	-0.12193283
119	0xbcb9c4bc	-0.022676818
120	0xbba3cd85	-0.004998865
121	0x3de305d9	0.110851
122	0xbdcc3858	-0.09971684
123	0xbde95db3	-0.11394825
124	0xbc1527a2	-0.0091036875
125	0xbe0651f4	-0.131172
126	0xbe0aebbe	-0.13566491
127	0xbdf0adb2	-0.1175188
128	0xbdff6199	-0.12469787
129	0xbe1d12d6	-0.15339217
130	0xbe08c587	-0.133566
131	0xbcee13da	-0.0290622
132	0x3e2e941c	0.17048687
133	0x3df978e8	0.12181264
134	0xbe489d26	-0.19591197
135	0x3e16aefd	0.1471519
136	0xbd170385	-0.03686859
137	0x3d3f4c8d	0.046703864
138	0x3dadfec7	0.084958605
139	0x3e28aef1	0.16472985
140	0xbde7ee10	-0.11324704
141	0x3def8b86	0.11696534
142	0x3dab38e6	0.08360462
143	0x3cf79b7e	0.030225512
144	0xbdbca7c7	-0.092116885
145	0x3e44f12f	0.19232629
146	0x3e0f46e9	0.13991894
147	0x3dc2f0b3	0.09518566
148	0xbd7a32ba	-0.061083533
149	0x3df36766	0.11884956
150	0x3dd04a8b	0.10170468
151	0xbd724aca	-0.059153356
152	0x3c2210e8	0.009891726
153	0x3dba4184	0.09094527
154	0x3dbd9087	0.09256082
155	0xbdb5c6f8	-0.08875841
156	0x3e123fc8	0.14282143
157	0x3dddd7cb	0.10832175
158	0x3d2bd475	0.04195066
159	0xbdfd84de	-0.12378858
160	0xbddb7391	-0.10715402
161	0xbd851088	-0.06497294
162	0x3da4d64c	0.080486864
163	0x3bdb7ce3	0.0066982373
164	0x3e10469b	0.14089434
165	0x3d3b65c3	0.045751344
166	0x3e12a5f0	0.14321113
167	0x3e0b52f7	0.13605867
168	0xbdffd720	-0.12492204
169	0xbe1b1e18	-0.15148199
170	0x3df84245	0.12122015
171	0x3e0fb394	0.14033347
172	0x3e1daff9	0.1539916
173	0x3d81eae1	0.06343628
174	0xbe483ddd	-0.19554849
175	0x3db59ca3	0.08867767
176	0xbe93dfb4	-0.2888161
177	0xbe6a29f7	-0.22867571
178	0x3d7a0416	0.061039053
179	0xbe2f5df1	-0.1712568
180	0x3cd6103e	0.026130792
181	0xbcd159ff	-0.025555609
182	0xbe873304	-0.2640611
183	0x3e3d303c	0.18475431
184	0x3e21da05	0.15805824
185	0xbe2bf70a	-0.16793457
186	0x3e11fa54	0.14255649
187	0xbdcddccd	-0.1005188
188	0xbdf3745b	-0.118874274
189	0x3e0c6024	0.1370855
190	0x3dee5dc2	0.11638977
191	0x3e11da76	0.14243492
192	0x3d5a7470	0.0533337
193	0xbe119d4d	-0.14220162
194	0x3cf909aa	0.030400116
195	0x3d83a2b4	0.064275175
196	0x3e2ca8ed	0.16861315
197	0xbe4fb67c	-0.20284456
198	0xbe445679	-0.19173612
199	0x3dad7b5c	0.084707946
200	0xbddb3609	-0.10703666
201	0xbd9b6fa9	-0.07589657
202	0x3e27fa3d	0.16404052
203	0x3e2fcaf0	0.17167258
204	0x3d7b4087	0.061340835
205	0xbb807974	-0.0039207283
206	0xbe1a51d3	-0.15070276
207	0xbe02fa5f	-0.12790821
208	0x3c696c36	0.014246991
209	0xbd9c9aa1	-0.076466806
210	0x3e351b85	0.17686279
211	0x3d825a5f	0.06364893
212	0xbdd39794	-0.103316456
213	0x3e124ace	0.14286348
214	0x3b7f96f0	0.0038999878
215	0x3e25d568	0.1619469
216	0xbe622f82	-0.22088435
217	0xbdbafb6d	-0.09129987
218	0x3d4f959a	0.05067978
219	0x3d5a2df4	0.05326648
220	0x3ca146be	0.019687053
221	0xbde1a732	-0.11018218
222	0x3e186ae4	0.14884526
223	0xbc58a32b	-0.013222496
224	0xbc816d5c	-0.015799217
225	0x3e398f2f	0.18121026
226	0x3c8b7295	0.01702241
227	0x3e43eecc	0.19134063
228	0x3d87146d	0.06595693
229	0xbe16f6af	-0.1474254
230	0xbe4cbceb	-0.19993941
231	0x3ccf6945	0.025318751
232	0x3e098d64	0.13432842
233	0x3d1ca0b8	0.03823921
234	0xbe25fe59	-0.16210307
235	0xbdb920b1	-0.090394385
236	0x3e052b31	0.13004757
237	0xbdcce8b8	-0.10005325
238	0xbd47d2ee	-0.048785143
239	0x3d89b6d1	0.067243226
240	0x3dc8c666	0.098034665
241	0x3c84147f	0.016123055
242	0xbd91a9a0	-0.071124315
243	0x3e1b4bf5	0.15165694
244	0x3dde7233	0.108616255
245	0xbd9365eb	-0.07197174
246	0x3e542564	0.20717388
247	0x3d3aa0f5	0.045563657
248	0x3ca07aca	0.0195898
249	0xbe4a1c0a	-0.19737259
250	0xbdc31869	-0.0952614
251	0xbd2c0625	-0.041998047
252	0xbe299640	-0.16561222
253	0xbe2ec86c	-0.17068642
254	0x3dccaf84	0.099944144
255	0x3d4901e0	0.049074054

gat_layers.1.W.bias f4 [128]
0	0x39ebf920	0.00045008305
1	0x3e151233	0.14557724
2	0xbcb7ba7d	-0.022427792
3	0x3e072e4a	0.13201252
4	0x3c37a8c3	0.0112096695
5	0x3d284152	0.04107792
6	0x3d4a003e	0.049316637
7	0x3e121896	0.14267191
8	0xbd8f7c31	-0.070061095
9	0x3e283c2a	0.16429201
10	0x3e294721	0.1653104
11	0x3d9952e7	0.074865155
12	0xbd1d5ff3	-0.038421582
13	0x3d35a368	0.04434529
14	0x3cf2c50a	0.029634971
15	0x3dc82247	0.09772163
16	0x3daa89b8	0.08327049
17	0x3e30345f	0.17207478
18	0x3c62af0a	0.013835678
19	0x3e0a0e16	0.13481936
20	0x3dd5ddca	0.104426935
21	0x3e289e51	0.16466643
22	0x3e2af84e	0.16696283
23	0x3d11f03e	0.035629503
24	0xbb19ab9b	-0.0023448232
25	0x3d8af582	0.06785108
26	0x3cb6353e	0.022242185
27	0x3d051c42	0.032497652
28	0x3e19a59e	0.15004584
29	0x3e20f12e	0.15717003
30	0x3e475772	0.19466951
31	0x3e39dac8	0.18149865
32	0xbb585279	-0.0033008142
33	0xbd3d9a07	-0.04628947
34	0x3d99898e	0.074969396
35	0x3deeb306	0.1165524
36	0x3d9ae4a1	0.07563139
37	0x3bec385e	0.007208868
38	0x3e36eee3	0.17864566
39	0x3dc8d372	0.09805955
40	0x3ce4d81c	0.02793508
41	0x3d3d5325	0.04622187
42	0x3deae1f4	0.114688784
43	0x3db52d86	0.088465735
44	0x3cd367fb	0.025806418
45	0xb9b7ace3	-0.0003503329
46	0x3c42c34e	0.011887385
47	0x3e33aa5b	0.17545454
48	0xbd3d64ad	-0.04623859
49	0x3b46bdb8	0.0030325484
50	0x3cc00d6a	0.023443896
51	0xbd41812a	-0.04724232
52	0xbb9efc3f	-0.0048518474
53	0x3d114ae0	0.035471797
54	0x3d063600	0.032766342
55	0xbd6fadf5	-0.058515508
56	0x3df9e1b8	0.122012556
57	0x3d853364	0.065039426
58	0x3e146358	0.14491022
59	0x3dee9c65	0.11650924
60	0x3989fd70	0.00026319502
61	0xbcb079f9	-0.021542536
62	0x3cfad8c4	0.03062094
63	0x3df9ca0e	0.12196742
64	0x3ccff577	0.025385601
65	0x3b15c126	0.002285072
66	0xbbd08992	-0.006364056
67	0x3df4e01a	0.119568065
68	0x3d74dcef	0.05978101
69	0x3dd8850f	0.10572254
70	0x3ce87556	0.028376263
71	0x3de1a89f	0.1101849
72	0x3c77a67a	0.015115375
73	0x3d999fbc	0.0750117
74	0xbb91cade	-0.0044492325
75	0x3e080306	0.13282403
76	0x3e2b766e	0.16744396
77	0x3c9dc816	0.019260447
78	0x3e19da78	0.15024745
79	0x3de14d54	0.11001077
80	0x3e011189	0.12604345
81	0x3b7d79a8	0.003867725
82	0x3ce72ac6	0.028218638
83	0x3e0263ad	0.12733336
84	0xbc05cd92	-0.008166688
85	0x3e19183a	0.14950648
86	0x3c9744c4	0.018465407
87	0x3df37e7c	0.11889359
88	0x3d5d6a85	0.054056663
89	0xbd21d382	-0.03950835
90	0x3de7cc42	0.11318256
91	0x3e3056bd	0.17220588
92	0x3e1a3363	0.15058665
93	0x3e061f6f	0.13097928
94	0x3db1f3a4	0.08689049
95	0xbd5ec029	-0.054382477
96	0xbb664c48	-0.0035140682
97	0x3daa084e	0.08302365
98	0x3c84c0d2	0.016205225
99	0x3d8b2295	0.067937054
100	0x3d4b37bc	0.0496137
101	0x3dc98c69	0.09841234
102	0x3d868cf8	0.065698564
103	0x3d9a17f8	0.07524103
104	0x3d4d8a95	0.05018099
105	0x3d828920	0.06373811
106	0x3dc62a66	0.096760556
107	0xbbabb36d	-0.005239895
108	0x3d93a2e8	0.07208806
109	0x3d83c49e	0.06433986
110	0x3d8cba4b	0.0687147
111	0x3d034995	0.032052595
112	0xbc90dfd3	-0.017684853
113	0x3bd5dc3b	0.0065264977
114	0x3e085dc0	0.13317013
115	0x3d028898	0.031868547
116	0x3d618082	0.055054195
117	0xbd8b15ce	-0.06791268
118	0x3e48fa89	0.19626822
119	0x3df9dd01	0.12200356
120	0x3dd22e28	0.1026271
121	0x3c82bed0	0.015960127
122	0xbd84e9b5	-0.064898886
123	0x3e2acc79	0.16679563
124	0x3dc26d63	0.0949352
125	0x3dd21a8f	0.10258972
126	0x3da0f423	0.078590654
127	0xbcd7943b	-0.026315799

gat_layers.1.attn.weight f4 [1, 256]
0	0xbd4b38ae	-0.0496146
1	0x3ccc4e5d	0.02493971
2	0x3cfeb297	0.031091018
3	0xbcd2113e	-0.025642987
4	0x3c08b713	0.00834443
5	0x3bf670b9	0.007520762
6	0x3d161dfc	0.03664969
7	0xbd370f9d	-0.044692624
8	0xbd844566	-0.06458549
9	0x3d225290	0.03962952
10	0xbd8d7fbd	-0.0690913
11	0x3c852a32	0.016255472
12	0x3d51af01	0.051192287
13	0xbd105e3b	-0.035246115
14	0xbd7d6903	-0.061867725
15	0x3c1545aa	0.0091108475
16	0x3d0507fc	0.032478318
17	0xbd689f16	-0.05679234
18	0xbab11016	-0.0013508822
19	0xbc6358c7	-0.013876147
20	0xbb92bcc5	-0.0044780695
21	0x3d63eb00	0.055644035
22	0x3c8d3193	0.017235553
23	0x3ca16a0f	0.019703893
24	0x3d11c94b	0.03559236
25	0xbcdcb10c	-0.026939891
26	0x3d64d828	0.055870205
27	0x3c9ca688	0.019122377
28	0xbc8cb4d7	-0.017176075
29	0x3d3afb40	0.045649767
30	0x3a8c3c82	0.0010699185
31	0x3d1b6f83	0.037948143
32	0x3c8ffbc5	0.017576108
33	0xbda29683	-0.07938864
34	0x3c454c4d	0.012042117
35	0xbc1ad7cd	-0.009450865
36	0xbdaaf96f	-0.08348357
37	0xbc487b4b	-0.012236427
38	0x3d66d7ca	0.056358136
39	0x3d09f5d0	0.03368169
40	0xbdb3886e	-0.08766256
41	0xbd534180	-0.051576138
42	0xbd6023f5	-0.05472179
43	0x3c954c80	0.018224955
44	0xbd93772a	-0.07200463
45	0xbd081b0f	-0.03322893
46	0xbd249151	-0.040177647
47	0x3bd2c77f	0.006432473
48	0xbd2df6dd	-0.042471755
49	0xbd574ba7	-0.052562382
50	0x3b050078	0.002029447
51	0x3c0f7f8d	0.008758438
52	0xbd3cf9de	-0.04613673
53	0x3d31276c	0.043250486
54	0xbd01c98a	-0.031686343
55	0xbd11d6ef	-0.035605367
56	0xbd1336a0	-0.035940766
57	0xbc66ea2d	-0.014093918
58	0x3d3627d5	0.04447158
59	0x3bcd0275	0.0062563964
60	0xbd231736	-0.039817058
61	0xbd099204	-0.033586517
62	0x3d502ae5	0.050822157
63	0xbc8f9258	-0.017525837
64	0xbd1ca248	-0.0382407
65	0x3d40671e	0.04697334
66	0xbcef1458	-0.029184505
67	0x3d402356	0.0469087
68	0x3c0fcfd6	0.008777579
69	0x3c8e9090	0.017402917
70	0xbd6c3793	-0.057670187
71	0xbd132840	-0.035927057
72	0x3d34cb12	0.044138975
73	0x3cb83058	0.02248399
74	0xbad32024	-0.0016107601
75	0x3d0e6045	0.03475978
76	0xbcc320b7	-0.02381931
77	0xbd0ec0d8	-0.03485188
78	0xbd04347b	-0.03227661
79	0xba9631f0	-0.0011458974
80	0x3d9fc758	0.07801694
81	0xbd65a4e1	-0.056065444
82	0xbcd816a8	-0.02637799
83	0x3d6aa901	0.05729008
84	0xbd4356d8	-0.047690243
85	0xbc19def2	-0.009391533
86	0xbcf2968f	-0.029612808
87	0x3d3da864	0.046303168
88	0x3d59f1f8	0.053209275
89	0xbd90b742	-0.07066204
90	0x3d3158c5	0.043297548
91	0x3d59a75b	0.05313812
92	0x3d1acd25	0.037793297
93	0xbb03ae0c	-0.0020092754
94	0xbca9b736	-0.020717245
95	0x3ce4793f	0.027889846
96	0xbd6c56ed	-0.057700086
97	0xbcd310e7	-0.025764896
98	0xbd805534	-0.06266251
99	0xbda1b80d	-0.07896433
100	0xbcee876d	-0.02911731
101	0x3d1b3919	0.03789625
102	0x3d5f612f	0.05453604
103	0x39a8e55c	0.00032214343
104	0xbd1da298	-0.03848514
105	0x3d0b0b5e	0.033946387
106	0xb9a411ef	-0.0003129388
107	0xbd08aac7	-0.03336599
108	0xbd40032c	-0.046878025
109	0xbda8a38c	-0.08234319
110	0x3d83bdab	0.06432661
111	0x3cc9ab4c	0.024617814
112	0x3c041953	0.008062678
113	0xbbf640a7	-0.0075150314
114	0xbc770dd9	-0.015078985
115	0xbc5877fc	-0.0132122
116	0xb955a309	-0.00020373998
117	0x3b653b24	0.0034977878
118	0xbcf65009	-0.03006746
119	0x3bd5c8eb	0.0065241954
120	0x3b94b901	0.0045386557
121	0xbd6b5d56	-0.05746206
122	0xbd497cee	-0.049191408
123	0x3c828223	0.015931195
124	0xbc856365	-0.016282747
125	0xbd794e42	-0.060865648
126	0xbb0d35dc	-0.0021546995
127	0xbd8b8701	-0.06812859
128	0x3c7e5c2e	0.015524907
129	0x3e90441e	0.2817697
130	0xbd919679	-0.071087785
131	0x3e755fec	0.23962373
132	0x3e896238	0.26832747
133	0x3c97cc5e	0.018530067
134	0x3e9060b8	0.2819879
135	0x3e929133	0.28626403
136	0xbd93abd5	-0.07210509
137	0x3e8a078b	0.2695888
138	0x3e6c2340	0.23060322
139	0x3e57c7f4	0.2107237
140	0xbc433422	-0.011914285
141	0x3e5804d9	0.21095599
142	0x3e5579d3	0.20847254
143	0xbd00943d	-0.03139137
144	0x3e8cc337	0.27492687
145	0x3e8ac8f2	0.27106434
146	0xbd6bcb62	-0.057567008
147	0x3e8a362d	0.26994458
148	0x3e83a12b	0.257089
149	0x3e32b116	0.17450365
150	0x3e58abc6	0.21159276
151	0xbd882494	-0.06647602
152	0x3e8bbcbc	0.2729243
153	0xbdd0b428	-0.10190612
154	0xbcc48116	-0.023987334
155	0xbca438fa	-0.0200467
156	0x3e7f4f69	0.24932636
157	0x3e362418	0.17787206
158	0x3ea3ac79	0.31967524
159	0x3e70e1de	0.23523661
160	0xbd19bc64	-0.03753318
161	0xbd11d958	-0.035607666
162	0x3e856343	0.26052293
163	0xbc011390	-0.007878199
164	0xbd65832f	-0.05603331
165	0xbd13531c	-0.03596793
166	0x3ea34c81	0.31894305
167	0x3e4c0291	0.19922854
168	0xbd4d832f	-0.050173935
169	0x3e9218c2	0.28534514
170	0x3e2fa1f8	0.1715163
171	0x3e87e0d1	0.2653871
172	0x3e99204e	0.2990746
173	0x3e82f623	0.25578412
174	0xbcbdb646	-0.023158204
175	0x3ea02d24	0.3128444
176	0xbccc20d0	-0.02491799
177	0x3c15c2d5	0.00914069
178	0xbcb7e00c	-0.022445701
179	0x3c5e0cf9	0.013552898
180	0x3e879053	0.26477298
181	0x3e870f5f	0.26378915
182	0xbd83a2ee	-0.06427561
183	0xbd622683	-0.05521251
184	0x3e8482c5	0.2588102
185	0x3e4f511a	0.20245782
186	0x3ea03fd7	0.31298706
187	0x3a8ab500	0.0010582507
188	0xbc255e6e	-0.010093315
189	0x3c3705f7	0.011170856
190	0x3e9b6810	0.3035283
191	0xbb3473b0	-0.0027534775
192	0x3c268932	0.010164546
193	0xbd834771	-0.06410111
194	0x3b3a40e0	0.0028420016
195	0xbcd2f68e	-0.025752332
196	0xbbebbb04	-0.007193925
197	0xbd0c742a	-0.03429047
198	0x3e6f61f9	0.23377217
199	0x3e5852de	0.21125361
200	0xbd36cf04	-0.04463102
201	0x3e94193a	0.28925496
202	0xbc8ad2e7	-0.01694627
203	0x3e784a0e	0.24247
204	0x3ea3fb37	0.320276
205	0xbd1f1083	-0.038834106
206	0x3e95f3b0	0.2928748
207	0xbd437145	-0.047715444
208	0x3e1cafc9	0.15301432
209	0x3e5cbf79	0.21557416
210	0x3eb0aac3	0.3450528
211	0x3e9c333c	0.3050784
212	0xbc2e536f	-0.010640009
213	0x3e88670d	0.26641122
214	0xbae7895d	-0.0017664839
215	0x3e868c48	0.262789
216	0x3e66777b	0.22506516
217	0xbc818fba	-0.015815604
218	0x3c8357ec	0.016033135
219	0x3e966969	0.29377297
220	0x3e8d8003	0.27636728
221	0x3e7712f6	0.24128327
222	0x3e907c1c	0.28219688
223	0xbd8fa9db	-0.07014819
224	0x3c6887e6	0.014192557
225	0x3e87d525	0.26529804
226	0xbd24809c	-0.040161714
227	0xbd2b4b74	-0.041820005
228	0x3e9ffb56	0.31246442
229	0x3e9dcec0	0.308218
230	0x3e46c57d	0.19411273
231	0x3b8a6855	0.004223863
232	0xbd06727d	-0.03282403
233	0x3e5e0184	0.21680266
234	0x3e74cc40	0.2390604
235	0xbd413244	-0.047167078
236	0x3e90b8d1	0.28266004
237	0xbcaa4374	-0.020784117
238	0x3bb394d4	0.005480388
239	0xbc93b827	-0.018032147
240	0xbd16bf8b	-0.036803763
241	0x3e90ebba	0.28304845
242	0x3ac006de	0.0014650484
243	0x3c7d40c0	0.015457332
244	0x3c73c33f	0.014878093
245	0xbdb64535	-0.08899919
246	0x3ea349bd	0.31892195
247	0x3e7b126a	0.24518743
248	0x3e72683c	0.23672575
249	0x3e9d08c0	0.30670738
250	0xbd8112b2	-0.06302394
251	0x3e8fb3ee	0.28066963
252	0x3e980f14	0.29699004
253	0x3c317bde	0.010832755
254	0x3e61bb20	0.22044039
255	0x3b5e406e	0.0033912915

property_head.0.weight f4 [64, 128]
0	0xbe1acb15	-0.15116532
1	0x3e2a8e58	0.16655862
2	0xbdd48a90	-0.10377991
3	0x3e012f57	0.12615715
4	0x3db7dc80	0.08977604
5	0xbe07373c	-0.13204664
6	0x3dfd36a7	0.1236394
7	0x3dd15fe4	0.10223368
8	0xbe178ed0	-0.14800572
9	0x3e269147	0.16266356
10	0x3e1538cd	0.14572449
11	0x3d835ecc	0.064145654
12	0xbe5616bc	-0.2090711
13	0x3de3ca8a	0.11122616
14	0x3dcf230a	0.10114105
15	0xbe5f2d33	-0.21794586
16	0x3e220d94	0.15825492
17	0x3dc4f203	0.096164726
18	0xbe439881	-0.19101144
19	0x3e232d9e	0.1593537
20	0x3dbf741d	0.09348319
21	0x3dd36e48	0.10323769
22	0x3e3f1b08	0.18662655
23	0xbe468d0a	-0.1938974
24	0x3dbfeda5	0.09371499
25	0xbd7bbb01	-0.061457638
26	0xbe10f5fa	-0.14156333
27	0xbe1bc45d	-0.15211625
28	0x3de7cac7	0.113179736
29	0xbc281b2d	-0.010260385
30	0x3e35146c	0.17683572
31	0x3cac811a	0.021057654
32	0xbe32f44c	-0.17476004
33	0xbd838f6f	-0.06423842
34	0x3d035022	0.032058842
35	0xbdeecf5b	-0.11660644
36	0xbe092a4a	-0.13395038
37	0xbda18111	-0.078859456
38	0x3e38d432	0.18049696
39	0x3d93cf96	0.07217328
40	0xbe4132df	-0.18867062
41	0x3dcee3e0	0.101020575
42	0x3df9b5cc	0.12192878
43	0x3d96ae83	0.07357504
44	0x3d9bc73c	0.0760636
45	0x3e21bc2b	0.15794437
46	0xbdd2a9d9	-0.10286302
47	0x3bebb83b	0.007193593
48	0xbe159016	-0.14605746
49	0xbdb9adff	-0.0906639
50	0xbe55c5bb	-0.2087621
51	0xbda90216	-0.08252351
52	0x3dd42cfa	0.10360141
53	0x3dc07fd6	0.09399383
54	0xbe0b78d5	-0.13620313
55	0xbd9cfc24	-0.076652795
56	0x3dd87368	0.10568887
57	0x3e2fdb89	0.1717359
58	0x3dad7b2c	0.08470759
59	0xbe4551b7	-0.19269453
60	0xbd38a058	-0.04507479
61	0xbe156ed9	-0.14593066
62	0x3d45c6c4	0.04828526
63	0xbe05cf9c	-0.13067478
64	0xbe2770b9	-0.16351594
65	0xbe4b18b5	-0.19833644
66	0xbe203af4	-0.15647489
67	0xbdbcd827	-0.09220915
68	0xbe426f1a	-0.18987694
69	0xbe02847d	-0.12745853
70	0x3e22185e	0.15829608
71	0x3da6bd6a	0.081415966
72	0xbe1b80c3	-0.15185837
73	0x3cef0e0d	0.029181505
74	0xbdddd217	-0.10831087
75	0x3e151f82	0.145628
76	0x3d2f04b1	0.042729083
77	0xbda4070a	-0.08009155
78	0x3e08d03d	0.13360687
79	0xbe12bf2f	-0.14330743
80	0x3e191e4b	0.14952962
81	0x3e042222	0.12903646
82	0x3d787d73	0.060666513
83	0x3e022c94	0.12712318
84	0xbd6eae2d	-0.058271576
85	0x3d0dcc57	0.0346187
86	0xbe720f9f	-0.23638771
87	0x3e2a076a	0.1660439
88	0x3e0a7553	0.13521318
89	0xbe0beae0	-0.13663816
90	0xbd6f1be8	-0.058376223
91	0x3d9c8c22	0.07643916
92	0x3e055b45	0.13023098
93	0x3e12162c	0.1426627
94	0x3e339b0c	0.17539614
95	0xbe0d3fce	-0.13793871
96	0xbdb82a75	-0.08992473
97	0x3d4ac0eb	0.049500387
98	0xbe50c3cb	-0.20387189
99	0xbca181b7	-0.019715173
100	0x3d96407a	0.07336517
101	0x3dc71bff	0.09722137
102	0xb7323123	-1.0621067e-05
103	0xbd8fbe20	-0.07018685
104	0xbde8af03	-0.11361506
105	0x3a502af3	0.000794097
106	0x3c5165e4	0.01278064
107	0xbdd634a7	-0.104592614
108	0x3d8ec575	0.06971256
109	0xbe43d43c	-0.1912393
110	0xbe4ea9e8	-0.20182002
111	0xbdaf212a	-0.085512474
112	0xbdf4081c	-0.11915609
113	0x3e2d93ce	0.16950914
114	0xbd9d4385	-0.07678894
115	0xbe7b21d5	-0.24524625
116	0xbd91609b	-0.07098504
117	0xbdf27203	-0.11838152
118	0x3dd450c2	0.10366966
119	0x3e3dbaca	0.18528286
120	0x3d2eee41	0.042707685
121	0x3e0a3696	0.13497385
122	0xbda42e17	-0.080166034
123	0x3db1a740	0.086744785
124	0x3e156235	0.14588244
125	0xbe3319b0	-0.17490268
126	0x3e040f5f	0.12896489
127	0xbdf4ccdb	-0.119531356
128	0xbe0c6473	-0.13710193
129	0x3d8bb952	0.068224564
130	0xbde4225b	-0.11139365
131	0x3e50e170	0.20398498
132	0x3d44030a	0.04785446
133	0xbe6d70c2	-0.23187545
134	0x3db5a234	0.088688284
135	0x3da3ed4e	0.08004247
136	0xbe07be65	-0.13256223
137	0x3daa686a	0.08320697
138	0x3e535636	0.20638356
139	0x3dfe1236	0.12405817
140	0xbe6f14f4	-0.23347837
141	0x3e2df626	0.1698843
142	0x3ddd68dc	0.10811016
143	0xbe458953	-0.19290666
144	0x3d854d11	0.0650884
145	0x3e108ce7	0.1411625
146	0xbe7d46d5	-0.24734052
147	0x3e31d91b	0.17367975
148	0x3dfa6070	0.12225425
149	0x3d8c6a0b	0.068561636
150	0x3dd6e5d0	0.10493052
151	0xbe546588	-0.20741856
152	0x3e1fb52c	0.15596455
153	0xbe0bd433	-0.13655166
154	0xbe10c413	-0.14137296
155	0xbe520bde	-0.2051234
156	0x3e1c6da3	0.15276198
157	0x3df623ef	0.120185725
158	0x3e1891dc	0.14899391
159	0x3e53287a	0.2062091
160	0xbe0929d5	-0.13394864
161	0xbe119f19	-0.14220847
162	0x3e252d89	0.16130652
163	0xbe517a6b	-0.20456855
164	0xbdb6c9b8	-0.089251935
165	0xbe594e8e	-0.21221372
166	0x3d4623a3	0.04837383
167	0x3e45d77f	0.19320486
168	0xbdcec0d6	-0.10095374
169	0x3df3e259	0.11908407
170	0x3e48756d	0.19576044
171	0x3dd69230	0.10477102
172	0x3d671e72	0.05642552
173	0x3da743b7	0.081672125
174	0xbe2056cb	-0.15658109
175	0x3e2454b3	0.16047935
176	0xbe110c3a	-0.1416482
177	0xbe0cb5da	-0.13741246
178	0xbe0d9c5e	-0.1382918
179	0xbe0cc7f3	-0.1374815
180	0x3e20f460	0.15718222
181	0x3d77a3ba	0.060458876
182	0xbe2c7aac	-0.1684367
183	0xbe83d66b	-0.25749525
184	0x3e0d5736	0.138028
185	0x3d187cee	0.037228517
186	0x3da0fb7f	0.07860469
187	0xbe81e4ab	-0.25369772
188	0xbe0d6247	-0.13807021
189	0xbe6008a6	-0.21878299
190	0x3e1c0f22	0.15240148
191	0xbe4d3578	-0.20039928
192	0xbe18076e	-0.14846584
193	0xbdcc4fcf	-0.0997616
194	0xbe2f6f0f	-0.17132209
195	0xbe2faf5e	-0.17156741
196	0xbe588894	-0.2114585
197	0xbe63964a	-0.222253
198	0x3dfd63ad	0.12372527
199	0x3ded3dfa	0.11584087
200	0xbd7360dc	-0.059418544
201	0x3dada95b	0.084795676
202	0xbdf5e3ca	-0.12006338
203	0x3d84b2f9	0.06479449
204	0x3e38272a	0.1798369
205	0xbdd211b1	-0.102572806
206	0x3d927dee	0.071529254
207	0xbe10dd16	-0.14146838
208	0x3d62e4b7	0.0553939
209	0x3df28fb9	0.11843819
210	0x3e451429	0.19245972
211	0x3d3646f7	0.04450127
212	0xbe174e38	-0.14775932
213	0x3dc0e27e	0.094182
214	0xbe840ac2	-0.25789458
215	0x3db8db4e	0.09026204
216	0x3e5889f4	0.21146375
217	0xbe8195dd	-0.2530965
218	0xbe3d382b	-0.18478458
219	0x3dfc2275	0.1231126
220	0x3ddacb77	0.10683339
221	0x3dac4a97	0.084126644
222	0x3e2f4d7a	0.17119399
223	0xbe0045cb	-0.12526624
224	0xbe74adea	-0.23894468
225	0x3e51b7e2	0.20480302
226	0xbe5dc7ed	-0.21658297
227	0xbe35fd18	-0.17772329
228	0x3e10947a	0.1411914
229	0x3d5cc692	0.05390031
230	0x3e2054d1	0.15657355
231	0xbe05c447	-0.13063155
232	0xbe2cafe1	-0.16863967
233	0x3e118357	0.14210258
234	0x3dfc740b	0.12326821
235	0xbe6c0e9c	-0.23052448
236	0x3e12ef49	0.14349093
237	0xbe1859d9	-0.14878024
238	0xbe104f26	-0.14092693
239	0xbdf348c1	-0.11879111
240	0xbe6cac4f	-0.23112606
241	0x3e320e46	0.17388257
242	0xbe96983b	-0.29413018
243	0xbe338617	-0.1753162
244	0xbe206fca	-0.15667644
245	0xbe4df400	-0.2011261
246	0x3d8573c1	0.06516219
247	0x3dc41bb1	0.09575594
248	0x3ccfb56f	0.025355069
249	0x3d8e2734	0.06941071
250	0xbe0fbf36	-0.14037785
251	0x3d2864dd	0.041111816
252	0x3dc6fb8b	0.09715947
253	0xbe59c3a0	-0.21266031
254	0x3e2944c7	0.16530143
255	0xbdc8b093	-0.09799304

property_head.0.bias f4 [64]
0	0x3e1c8408	0.15284741
1	0x3dc7a482	0.09748174
2	0x3d7604da	0.06006322
3	0x3d88010a	0.06640823
4	0x3d94e604	0.072704345
5	0x3d860462	0.06543805
6	0x3d96982d	0.07353244
7	0x3c6dc012	0.014511125
8	0x3c6e1205	0.014530663
9	0xbb4cab05	-0.0031229865
10	0x3e124d4d	0.142873
11	0x3dfd586e	0.12370382
12	0x3df024a2	0.11725737
13	0xbdaeb007	-0.08529668
14	0xbd6ba776	-0.05753275
15	0xbd871703	-0.06596186
16	0x3d58ec39	0.052959654
17	0xbc921d46	-0.017836224
18	0xbcb4919a	-0.022042084
19	0xbd2de76d	-0.042457033
20	0x3d75e67f	0.06003427
21	0x3e7fc5a9	0.24977745
22	0x3da45af7	0.08025163
23	0xbc9fea8a	-0.019521017
24	0x3d84ac6f	0.064782016
25	0x3cfffee0	0.031249464
26	0x3cfa85df	0.030581413
27	0xbd1d7fb1	-0.038451854
28	0x3e28b10e	0.16473791
29	0x3dc834ee	0.097757205
30	0x3d95490c	0.07289323
31	0xbd719d7d	-0.058988083
32	0x3d803de5	0.062618054
33	0x3d1db071	0.038498346
34	0x3dd971c8	0.10617405
35	0xbd5ae07f	-0.053436752
36	0xbc959722	-0.018260542
37	0x3d30cdc7	0.043164995
38	0x3e0d3db4	0.13793069
39	0x3cfda6a3	0.030963248
40	0xbd446fda	-0.047958232
41	0xbde0cf2c	-0.10977015
42	0xbd809a26	-0.062794015
43	0x3e682a57	0.22672401
44	0xbccd251e	-0.025042113
45	0x3e16c67d	0.14724155
46	0x3dc3110f	0.09524738
47	0xbca00c7f	-0.019537209
48	0x3daeb6ff	0.085309975
49	0xbcefbcec	-0.02926489
50	0x3e2bf9d5	0.16794522
51	0x3d1341d4	0.03595145
52	0xbdbab9dd	-0.09117482
53	0xbc803643	-0.015650874
54	0xbc11c2c6	-0.008896535
55	0x3e19770a	0.14986816
56	0x3db9d0d1	0.09073032
57	0x3ddcb51e	0.10776733
58	0x3ced9dbf	0.029005883
59	0x3e884636	0.26616067
60	0xbda843a2	-0.08216025
61	0x3e25096b	0.16116874
62	0x3ddd17b6	0.10795538
63	0x3d6a500b	0.05720524
