GNN/archive/best_gcn_model.pth (torch, 73266 bytes, 9 tensors)

embedding.weight f4 [100, 64]
00000000: 27a5 f63f 545f be3f 6795 663f ddc0 06c0
00000010: d5ac 2d3f 9205 9ebf 8767 30bd ba65 cdbf
00000020: ff8b 40bf 5a09 d33f f6f2 c8be 63a9 b3bf
00000030: 6d56 3abf cc36 0fbf a1d2 44bf 9f2f 433f
00000040: 7137 d23f 7b6d 23be e2aa febe d711 e13e
00000050: e214 42bf 5006 8a3f 4301 4d3f 931e d73f
00000060: 59ba a33f 2ff1 a53f 8847 1c3f b0d8 aa3f
00000070: ed2e 6dbe 000c 2b3d 79ce 80be b01f 5c3f
00000080: 013d b1bf 5509 5fbf 0aba 64be 7dd2 db3f
00000090: 3444 a33e 8d5a d9be 6087 9c3e b24b 46bf
000000a0: 875e c7bf 02e2 7e3f a539 61bf 81e4 19bf
000000b0: 6517 a3bf b6db 0740 1f09 9ebf d9cf f9be
000000c0: 4ef0 69bf af7b 28bf fbca 9f3d 679b 063f
000000d0: 0dda f9be c97e 983f ce62 50bf 076a 3cbf
000000e0: a09d b3bf bf78 133d 5f00 82bd 19f5 2c3f
000000f0: fb4e c8bd a81b ec3f ec9e 97bf 2518 b13f
00000100: 81fa d73f b4e8 8c3f c2de 1d40 21e5 403f
00000110: 58fb 0d3f 2173 d6be 1603 a2bf f6fe c13f
00000120: de32 cbbe 4d9f c93e 0dad 36be 28e4 253f
00000130: 64ff 4d3f 299f 5ebf f884 1dc0 ad5c 82bf
00000140: 1fd9 5a3e d3fe 06bf 338e cbbf bf6f 52bf
00000150: 6ad3 353f ba15 4d3f 8284 b23f fcbb 30be
00000160: f0f8 763f 1601 2ebf b3ce a9bf 65e1 553f
00000170: e923 fdbf b2fb 8bbf f4e3 c93f 46b3 333f
00000180: 8e82 2fc0 300c 013f d2ef 863f 6bcc 793e
00000190: 48f5 673f dfe2 5c3f e7cb a53f 62d6 26bf
000001a0: 1343 dfbe 8513 823f 00df 1c3f 9064 d73e
000001b0: 33fb fd3e 9fb1 c53f 40aa 69be 5890 eabd
000001c0: 9819 d8bf 3941 193d 7896 58bf 65de 333f
000001d0: 3ba5 713f 2c40 15be 368c 24bf e616 423f
000001e0: 4237 623e 25a1 303d 6a92 b43e 3394 823f
000001f0: 1908 aa3f 6e15 0e3f 3f57 783f 4491 333f
00000200: 4530 f73f c184 813f 2bdc b7bf 3f9f 90bf
00000210: a34c 0bbe 1b55 d13f 129d 273f 0a75 133f
00000220: ef1c 923f bd14 983c 9f24 e7bf 4be9 6c3f
00000230: 232d c0be 343c 843f 5fc8 2fbf 3706 233f
00000240: 2801 79bf 7d5d 753f f641 cf3f 95ad b93f
00000250: 54f9 893e cc6c 57be f698 3bbf 279a d53d
00000260: 958f b23e 3eb4 773f b76e eebe ff69 cd3f
00000270: 4bba 1ec0 4bc8 d5be a104 99bf 4ff5 4f3f
00000280: 5445 f3bf f70f 6a3e f3a5 cb3c 6320 b1be
00000290: a8db 923e 7d18 3bbf 1b04 333e dc05 8cbf
000002a0: 9713 cdbf ba2b ad3f 4ef8 a43f de33 563d
000002b0: 33ff c5bf 7db7 413f 7288 463f c3b2 0140
000002c0: 7db5 123d 39f7 f63d fc3f 4ebf 058f 54be
000002d0: 2194 6ebf c9a4 cbbf a867 91bf f4c8 05bf
000002e0: 54ce 04bf d329 c0bf 9d9c f6bf 6feb 023e
000002f0: d3ee 823f 9148 0ebf 384b 343f 6fba 353f
00000300: 291f e33f bfea 6bbf 1e63 763f 4e8d acbe
00000310: 5571 96bf 4253 b73e 1721 f53e 0b46 ad3f
00000320: 01ac 063f a22b 0740 5750 05bf f097 6ebf
00000330: ef9a 3d3e e5ca 883f 843c a73f 6e6f eb3e
00000340: 638b 50bf f6b7 82bf 9d66 fdbe cb9d 17bf
00000350: 0205 1e3e 32ac e13e e8d9 17be 5f61 14c0
00000360: 0bc6 cbbe 624d 8a3f 5df3 e3bf a307 c13f
00000370: 6a6d 9e3e 4414 00bf fc7a 843f 5f46 d83f
00000380: 1d9f 93bb 7459 d53f 409d 1d3e 61b6 87bf
00000390: b099 12bf b925 ab3d 65c0 cc3e 579e fe3f
000003a0: 306e 93bd d0f5 67bf 1a1e 03c0 0560 8abf
000003b0: 905e 903c f134 a03d 49cb 453e b6c0 d13e
000003c0: 7adb 6dbf e468 8d3e b8f3 09bf 98d7 ec3e
000003d0: 2134 5fbf 2f27 debc a1dc b4be ab5f bb3f
000003e0: 12b2 a03f 5807 37bf 779a 5a3f 6353 033f
000003f0: d02b 0a3f f0c4 103f 917b 013f e6ca 633e
1.926915 1.4872842 0.9007172 -2.1055214 0.67841846 -1.234545 -0.04306748 -1.604667
-0.7521362 1.6487229 -0.39247864 -1.4036068 -0.72788125 -0.5594299 -0.76883894 0.7624454
1.6423169 -0.15959732 -0.49739748 0.43958923 -0.75813115 1.0783176 0.8008005 1.6806206
1.2791244 1.2964228 0.6104665 1.3347378 -0.23162432 0.04175949 -0.25157526 0.8598585
-1.3846742 -0.87123615 -0.22336593 1.7173611 0.31887972 -0.42451897 0.30572033 -0.7745925
-1.5575722 0.9956361 -0.87978584 -0.60114294 -1.2741514 2.122785 -1.2346534 -0.48791388
-0.913823 -0.65813726 0.07802387 0.52580875 -0.48799172 1.1913692 -0.81400764 -0.73599285
-1.4032478 0.036003824 -0.06347727 0.6756149 -0.09780689 1.844594 -1.1845374 1.3835493
1.6873323 1.1008515 2.466721 0.7534962 0.55461645 -0.4188471 -1.2657192 1.5155933
-0.39687246 0.3937935 -0.17839451 0.64801264 0.8046782 -0.8696161 -2.4612408 -1.0184532
0.21371888 -0.5273258 -1.5902771 -0.8220176 0.7102572 0.8011128 1.3946688 -0.1725921
0.964736 -0.67970407 -1.3266205 0.8354705 -1.9776584 -1.0936186 1.5772691 0.70195425
-2.7423434 0.5040922 1.0541937 0.24394386 0.90608644 0.8628368 1.2952851 -0.6517087
-0.4360586 1.0162207 0.6127777 0.4206891 0.49605712 1.5444831 -0.22818851 -0.11453313
-1.688281 0.037415717 -0.846046 0.7026122 0.94392747 -0.14575261 -0.64276445 0.7581619
0.22091392 0.04312243 0.35267955 1.0201477 1.3283721 0.5550145 0.97008127 0.7014353
1.9311606 1.0118638 -1.4364065 -1.1298598 -0.13603453 1.6354097 0.65474045 0.5760046
1.141508 0.018564576 -1.8058051 0.92543477 -0.37534437 1.0330873 -0.6866512 0.6368136
-0.9726739 0.95845777 1.6192005 1.4506098 0.26948035 -0.21037596 -0.73280275 0.10429793
0.3487517 0.967594 -0.46568844 1.6047972 -2.4801204 -0.41754374 -1.1954538 0.81233686
-1.9005532 0.22857653 0.024859404 -0.34595022 0.2868321 -0.7308424 0.17482035 -1.0939288
-1.6021603 1.3528969 1.2888277 0.05229556 -1.5468506 0.75670606 0.7755195 2.0265357
0.035817612 0.12058873 -0.8056638 -0.20757683 -0.93194777 -1.5909663 -1.1359758 -0.52259755
-0.5187733 -1.5012764 -1.9266545 0.12785123 1.0229133 -0.5557948 0.70427275 0.709876
1.7743884 -0.9215507 0.9624499 -0.33701557 -1.1753336 0.35805708 0.47876808 1.3537
0.5260621 2.1120381 -0.52075714 -0.9320059 0.18516134 1.0686918 1.3065343 0.45983452
-0.8146269 -1.021239 -0.4949235 -0.5922515 0.15431598 0.44076687 -0.14829218 -2.318443
-0.39799532 1.0804865 -1.7808644 1.5080456 0.3094285 -0.5003092 1.0350032 1.6896476
-0.0045050518 1.6667924 0.15392017 -1.0602533 -0.5726576 0.083568044 0.39990535 1.9892071
-0.07198751 -0.90609455 -2.0487123 -1.0810553 0.017623216 0.07822598 0.19315828 0.4096734
-0.9291302 0.27619088 -0.5388751 0.46258235 -0.8718892 -0.027118294 -0.35324576 1.463857
1.2554343 -0.7149558 0.85391945 0.51299113 0.539731 0.565505 0.5057917 0.22245368

gcn_layers.0.linear.weight f4 [64, 64]
00000000: d1fa 163e ebb8 1d3d 9099 453e 7e64 863d
00000010: 2e2c fa3d 8a6a a8bd a031 83bc bd37 b03d
00000020: 467e 0abe edb3 b4bd 5878 bebd 315e 143d
00000030: ca05 383e 6ff7 2fbe dc26 b4bd 9e83 9ebe
00000040: 6f2f c03d 6f6f f7bd b53c 1ebe 1fbc 1dbd
00000050: ba4a 8abc 627d 163e aab7 d43d bed5 2ebe
00000060: 8396 473e f0bd 3ebc 84ba 1cbe 9155 c83d
00000070: af2b 3bbd 5f3b 2cbe a45a 4e3c db1e 5c3e
00000080: 8a15 2cbe ad0c 24bc 491d 243e b7a3 493e
00000090: 7315 963e 675c 113e 8064 f13d 02da 3fbe
000000a0: 0f56 69bc b937 a13e 1d3e 6b3d bea6 0c3e
000000b0: 71db 673d a232 d03d 1aa7 ee3b 1a3f 73bd
000000c0: a3b6 00be fb61 a83d 94c1 5cbe a05b 133e
000000d0: 0e20 3a3e c232 6ebe 4521 19be 9a7f b03d
000000e0: 3bd2 503e 5857 42be bb66 603e 8106 393e
000000f0: 1a3e 623e 35c7 d03c ebc4 fb3d be30 853e
00000100: 8a1a 7d3e d45a 753e db23 843e 7875 163e
00000110: 52e0 1c3d 2ea5 09be b319 4bbd 15d8 933e
00000120: 3657 56be 72fc 833b 6a28 b3bd b616 003e
00000130: 5830 5c3e 2fd6 2bbe 0bf4 1bbe f5c6 babe
00000140: 73dc 1b3e 0298 a0bc 1372 b1bd 4bd9 86be
00000150: 4d5c 0f3e f368 8b3e 1c64 053e 5b07 32be
00000160: cd1f 5e3e 5cb7 04bd 2da9 16be 3d1c 6a3d
00000170: f26c 9cbe 138d bfbd 14b1 2c3e a1ab 873e
00000180: 5214 debd 0a0a b8bd 8e85 873e 4daa 3d3e
00000190: 8ebc 463e 224c c43e e621 503e 00ae 2fbe
000001a0: 0fb6 85be 5f00 b73e 42c0 343d 6737 8c3e
000001b0: f46f b53d 1faf 3c3e 3694 01be cdbe 3a3e
000001c0: 6cd7 82be 12cf 173d 5d17 b8bd 9399 a23d
000001d0: dc35 e13d c897 92bd c674 9bbe e3e3 5e3e
000001e0: 7dda b43d 0f46 28bc a329 973e d551 9b3e
000001f0: 2e42 0f3e 9e42 543e 2813 463e 312b 8e3e
00000200: 4b17 b73d a28d f2bc f4dd af3c c3e7 72bd
00000210: 836d 33bd 1395 7c3c ca37 f83c f926 043d
00000220: 0ed6 eb3d ade6 bf3d cc6d 0cbd b6d6 b93d
00000230: d144 813d 7943 893d 4925 123d 5932 41bd
00000240: be30 c3bd 9411 b23c 085e 91bd d6c2 863d
00000250: 9a1b 0abe 518e 08be 58c5 a0bd 705f bc3d
00000260: ccea 9b3d 47fc abbd 05b0 62bd 34a0 cc3b
00000270: d4c6 b7b9 0a1f a4bd ac9f 4b3c 16b2 00be
00000280: 42f0 f83c f623 1c3d de93 bc3d 459f 02be
00000290: 4775 8f3d 02a4 d3bb 8cdf b03d 7162 133e
000002a0: b581 38bc 8aa8 30bd c52f 55bd 654d 9c3d
000002b0: 790d 99bd 56ae 743d 21ba 933d f229 0d3e
000002c0: ddb9 e23d 1e8c a63d f46c a5bd 240a b2bd
000002d0: d232 e2bd 9b62 553d 1b23 4c3d d8f0 d73c
000002e0: ff71 d93c 76f4 b73c 3cc8 d53c f08f bcbd
000002f0: 0e0a 713d 829b 03be a5de 0bbe aee3 933c
00000300: f02d 953e 5505 103e 29f5 9f3e a13f 083e
00000310: 531d 2e3d 9a38 20be 5ce9 c8bd cadd f93d
00000320: d88c 93bc a657 06be 1adf 42be 1c76 c83d
00000330: 18eb 5f3d 8caa 4bbd 17bb 77be 54c6 b8be
00000340: 2967 043e 5521 1bbd e290 e0bd 24ee f5bd
00000350: 1a45 ee3d 5fd1 8a3e a213 5a3e 7e5a 5dbd
00000360: 4ac1 3c3e cb7e 3fbd 4b8b 4abe 4632 2f3e
00000370: 666a a0be dcc6 24be df92 b63d b9c6 333e
00000380: 42c7 5ebe 70dc 333d 430f 1f3e bef8 173d
00000390: 0ed1 9e3e 7401 c23e fe6d 303e 8d79 c9bd
000003a0: 9e4f 51bd 68b9 963e 577f 0a3e 9d2d 7f3e
000003b0: b3a1 7c3e 75e5 473e a1bb 69bd 8757 c53d
000003c0: 7fc3 51be 4e4c e73d 1f3d 94be fb36 4e3e
000003d0: b7a5 b83d 8947 80be 0d2a 95be 0adf c13d
000003e0: 742e 643d 8840 fdbd 8bc5 223e efff b43e
000003f0: c1cb 503e de59 f93d d971 413e 82dc 5e3e
0.14744116 0.03850643 0.1929686 0.06562136 0.12215458 -0.08223446 -0.016014874 0.08604381
-0.13524732 -0.088233806 -0.093002975 0.03622264 0.17970958 -0.17184232 -0.08796474 -0.3095979
0.09384047 -0.12081801 -0.15452845 -0.038509484 -0.016881336 0.14696267 0.10386594 -0.17073724
0.1949101 -0.011641964 -0.15305525 0.097819455 -0.045695957 -0.16819523 0.012594853 0.21496145
-0.16805092 -0.010012788 0.16026796 0.19691359 0.2931324 0.14195405 0.11786747 -0.18735507
-0.014241709 0.31487826 0.057432283 0.13735482 0.05660576 0.101659074 0.0072831037 -0.05938635
-0.1256967 0.08221813 -0.21558219 0.14390421 0.1817629 -0.2326155 -0.14954098 0.08618088
0.20392697 -0.18978631 0.21914189 0.18068887 0.22094002 0.025485614 0.122934185 0.2601375
0.24717155 0.2396043 0.25808606 0.14693248 0.038299866 -0.13441917 -0.049585056 0.28875795
-0.20931706 0.0040278966 -0.08747943 0.12508664 0.21502817 -0.16780923 -0.15229814 -0.36479917
0.15220813 -0.019603733 -0.08664336 -0.26337656 0.14000054 0.27228507 0.1302647 -0.17385618
0.21691819 -0.032401428 -0.14712973 0.057155836 -0.3055187 -0.0935308 0.16864425 0.2649813
-0.108437195 -0.0898629 0.26469082 0.18521996 0.19407865 0.38339335 0.20325431 -0.1715622
-0.26115462 0.3574247 0.044128664 0.2738602 0.08859244 0.18426178 -0.12654194 0.18236847
-0.2555498 0.037062712 -0.08988831 0.07939448 0.10996601 -0.07157856 -0.3036253 0.2176662
0.08830736 -0.0102706095 0.29523954 0.3033587 0.1399009 0.20728537 0.19343245 0.27767327
0.0893999 -0.029608551 0.02146814 -0.059303056 -0.04380561 0.015416401 0.03030004 0.03226373
0.11515437 0.0937017 -0.034284398 0.09074156 0.06311954 0.067023225 0.03568009 -0.047167156
-0.09530781 0.021736898 -0.07098013 0.06580131 -0.13487092 -0.1333554 -0.0785014 0.09197891
0.07613143 -0.083977275 -0.055343647 0.0062446836 -0.00035052618 -0.08013733 0.012428205 -0.12567934
0.030388001 0.038120233 0.09207891 -0.12756069 0.07004791 -0.0064587602 0.08636388 0.14393021
-0.011261393 -0.04312948 -0.05204751 0.07631949 -0.07473273 0.059736572 0.07213236 0.13785532
0.11070607 0.08132194 -0.08077422 -0.086933404 -0.110448495 0.05209599 0.049838167 0.02635996
0.026543615 0.022455435 0.026096456 -0.092071414 0.05884748 -0.1285229 -0.13659151 0.018052902
0.2913661 0.14064534 0.3124173 0.13305523 0.042508435 -0.15646592 -0.09810135 0.12200506
-0.018011495 -0.13119373 -0.19030419 0.097881526 0.054667562 -0.049723193 -0.24192463 -0.36088812
0.12929977 -0.037873585 -0.10965134 -0.12008312 0.11634274 0.27112862 0.21296552 -0.05404138
0.18433109 -0.04675178 -0.19779699 0.17109022 -0.31331176 -0.16091484 0.08914732 0.17556275
-0.21755698 0.043911397 0.15533166 0.037102453 0.3101887 0.37891734 0.17229459 -0.09837637
-0.05110132 0.2943833 0.13525139 0.24919744 0.24671058 0.19521125 -0.057063702 0.09635835
-0.20484732 0.11293851 -0.28952882 0.20138161 0.090159826 -0.25054577 -0.29133645 0.094663695
0.055708364 -0.12365824 0.15895669 0.35351512 0.20390226 0.12175344 0.18891086 0.21763805

gcn_layers.0.linear.bias f4 [64]
00000000: 4b13 5e3e e59f ed3d a49d 273c 1a06 213e
00000010: 2a29 053e f2f5 2a3d 24e6 ed3d 7dc2 09be
00000020: 72bc debc 596c 14bd dfca 5dbd 1ba4 143c
00000030: a9d8 7e3e 1b02 b5bd 5031 303d fb6f cb3d
00000040: b75f 3e3e 634b ca3d 2685 503d f292 823e
00000050: 1820 4a3e c03b 5a3c 7503 223e b406 363e
00000060: 4e57 873d 00b9 1e3a 021b 153e 1e04 1b3e
00000070: 344f 5e3e ec4b 703e 14d5 623e ed58 3b3e
00000080: c857 6a3e f599 693e 1f94 c43d 2cc1 5c3d
00000090: 0d2b 3a3e 1a08 0b3e 30d9 fd3d 3dd2 c63d
000000a0: daf4 1b3e 4a9f e13c c6bc e3bd 9923 ee3d
000000b0: 30ef 5cbd bda8 923e 7f0f 793c b112 fe3d
000000c0: d557 9c3d 8569 aa3d d8b1 083e 710c 6a3c
000000d0: 3184 413d c6f8 033e 7f74 473d 97cc ab3d
000000e0: 5d27 283e 13d9 033e 7db0 cabd 1dc5 8e3d
000000f0: 33d0 3d3e 6f73 02be f601 493e bb55 603e
0.21687047 0.11602763 0.010230456 0.15724984 0.13003984 0.041738458 0.116161615 -0.13453098
-0.027189467 -0.03623614 -0.05414855 0.009072329 0.24887337 -0.08838292 0.043015778 0.09933468
0.185912 0.0987766 0.05090823 0.25502735 0.19738805 0.01331991 0.15821631 0.17775995
0.06608449 0.0006054789 0.14561084 0.1513829 0.21709901 0.23466462 0.22151595 0.18295641
0.22885048 0.22812636 0.09598564 0.05389516 0.18180485 0.13577309 0.12394941 0.097080685
0.15230122 0.027541775 -0.1111999 0.116278835 -0.053939044 0.28644362 0.015201448 0.12405909
0.0763394 0.083209075 0.13349092 0.014285193 0.04724521 0.12887868 0.048695084 0.08388632
0.16421266 0.12875776 -0.09896944 0.0697119 0.18536453 -0.12739347 0.19629654 0.21907704

gcn_layers.1.linear.weight f4 [64, 64]
00000000: a275 e53d 87cd db3d 0197 97bd 9a00 52bd
00000010: 3322 b43d 5b8e 9bbc 3602 c0bd f390 83bd
00000020: 457e a73d 06a6 a0bd 9415 343d 176b dabd
00000030: f852 9b3d 8bf6 f03c 26b4 af3d 4841 dab9
00000040: 856c 723d 2af5 cf3d 282d 81bc 2079 c1bd
00000050: fb31 babd e1ea 903d 822d a6bd 80ec e5bd
00000060: f8f5 dfbd 40bf 62bd 6586 973c b195 f3bd
00000070: b138 6bbd 8072 ed3d d0e6 c9bc 5c49 37bd
00000080: 7f95 5e3d 91d2 dfbd 1eb3 cabd c5c6 5b3c
00000090: 06ce f63c f8c0 ffbd 7cec e03d b85d 47bd
000000a0: 3879 8b3c ddad aa3d 80fa 433d b12a 103d
000000b0: 200e e1bd b7fe fdbd d33a 613d 941c 3fbb
000000c0: e6ef 8d3d b509 863d e6d5 cdbd 412c a33c
000000d0: eb62 d3bd 1535 90bd a23b 023d 9000 00bc
000000e0: a58f b2bd 75d0 103d eb3a aa3d c33d 00be
000000f0: e80c f13d 0a7b 853d 1b1e 72bc 0462 fdbd
00000100: 08be 58bd 3c41 1c3d 2423 5abd 4c4c 28bd
00000110: a870 53bd e61a dc3d 26a7 d83d 36ac c7bd
00000120: 2cf5 1dbd 30e0 e73d a0ec ebbb f047 79bd
00000130: 70a7 773c 288e ca3d 784f 82bc a490 f1bd
00000140: ec24 2bbd e0d0 7e3d 204d 97bc 24e0 b43d
00000150: fc15 303d 00b0 8f3a 0093 433d a038 8abc
00000160: fc74 dbbd ae64 dbbd d85d c9bd f018 a3bc
00000170: 301a b9bd 3811 963c 20d4 6a3c 30c9 c23d
00000180: c04f e63b 6087 ae3c 940f 363d 50c0 10bd
00000190: 281f 7fbd 5ad0 f0bd 9a54 f9bd b0aa 063c
000001a0: 501e 72bd 84bd 0d3d a07e fe3c 6ea9 c73d
000001b0: a004 7abc 0091 0aba acaf b03d 28a6 ad3c
000001c0: c855 6a3d 183d 8abd 6808 b9bd e02b c33d
000001d0: ac7c b63d e0dc 41bd 801a aa3c 08ac e3bd
000001e0: 1054 0f3c dcad edbd a4b1 903d 12bc fdbd
000001f0: d003 f7bc ead8 ee3d 0875 2dbd ae63 94bd
00000200: 2214 5a3e 8b6b cf3d 8767 3a3d 8cc1 703e
00000210: eef6 df3d c0aa 9bbd 4e46 6c3e 660c 673f
00000220: 830e 7bbd a2e9 49bd 50a1 11bc 9eaa 243e
00000230: d94f 533e 1296 cd3c 1ffc 8e3e b498 923e
00000240: 741e 623e 147c 283e 6e0d 8b3d bcd6 653e
00000250: 8674 003e 24d6 6d3e 68f2 523e e1a9 4a3e
00000260: 075e 9c3d f4c9 74bd e8b8 af3d dd06 2b3d
00000270: 0515 163e f751 463e f315 f63d 66b9 d83d
00000280: 8a52 193e c5a6 f63d 8706 be3d a5c0 0c3d
00000290: 5f08 1d3e 6e4e db3d 2663 a93e 4849 203d
000002a0: df7a 753e 8f56 bbba 000e 553b efe0 b5bb
000002b0: 2d7f b03c 03a3 ac3d f89c 823e eb11 743d
000002c0: a031 763e 6672 003e 0362 073e 6286 d63d
000002d0: 15f3 aebb d97c a83d d865 533e 191c ae3d
000002e0: f972 523e 66ae 323e d0cd 99bd e762 a33d
000002f0: a6ee 903e b4a7 0a3e ac35 d83e c5e7 2f3e
00000300: d2f8 713c fe9c d63d 4c07 a33c ed6a af39
00000310: da87 28bd 98f4 d73c 802a 05be 586a ffbd
00000320: 0065 6dbc 288f b1bd 00cb b1bd cf4e dbbc
00000330: e387 833d e865 7d3d 3c87 4bbd 9975 6ebc
00000340: 7aa7 ed3d 063e b03c f616 ae3d a39e 5fbd
00000350: f199 f0bd 4f10 82bd ea75 af3b a31b 13bd
00000360: 4c62 97bd b62d f63d d239 f7bd 81ac 2fbb
00000370: fd57 353d 1f8c 20bd f15a 473d 8ccb a6bb
00000380: 034c a4bd 7233 8bbd 04d6 7bbd b324 f5bd
00000390: fa8d 9f3d a956 df3d 7481 83bd 6074 ca3b
000003a0: 985b 143d ecf7 103d b617 8ebd 6b9e a6bd
000003b0: fc33 f93d 8c84 883d 0cce e33d 2c57 a63d
000003c0: 3061 18bc 7afa a93d 2ed5 1cbc 1992 cebb
000003d0: 78d7 5dbd 5693 ba3d 6860 03bd 9ea8 4e3c
000003e0: cfb0 cabd f94e 1e3d 04bc 56bd fdb0 0abd
000003f0: ee56 89bc b957 473d fcad 393c 803f 873c
0.11204077 0.107325606 -0.074018486 -0.051270105 0.087955855 -0.018988779 -0.09375422 -0.06424131
0.08178381 -0.078441665 0.04396589 -0.10664957 0.075841844 0.029414436 0.085792825 -0.00041628839
0.059185524 0.10154183 -0.015768602 -0.09446931 -0.09091564 0.070760496 -0.08114149 -0.112267494
-0.10935587 -0.05535817 0.018496701 -0.11893786 -0.057427112 0.11594105 -0.024646193 -0.044747695
0.05434179 -0.10928834 -0.09897445 0.01341409 0.030127537 -0.12487978 0.10982606 -0.04867336
0.017025575 0.08333943 0.047846317 0.035196964 -0.10989022 -0.124020986 0.05498774 -0.002916132
0.069305226 0.0654482 -0.100505635 0.019918563 -0.103216015 -0.070413746 0.03179515 -0.007812634
-0.08718804 0.03535505 0.08312019 -0.1252356 0.1177004 0.065176085 -0.0147776855 -0.123722106
-0.052915603 0.03814815 -0.05325617 -0.041088387 -0.05162111 0.10747318 0.10578756 -0.097496435
-0.038563892 0.11322057 -0.0071998388 -0.06085962 0.015115604 0.098903954 -0.015907034 -0.11795166
-0.04178326 0.062210917 -0.018469393 0.08831814 0.042989716 0.0010962486 0.047747612 -0.016872704
-0.107156724 -0.107125625 -0.098323524 -0.019909352 -0.09038198 0.018318757 0.014332801 0.0951103
0.00702855 0.021304786 0.04444845 -0.035339653 -0.062285572 -0.1175849 -0.121743396 0.008219406
-0.05911094 0.034604564 0.031066239 0.09749113 -0.015259892 -0.0005285889 0.08627257 0.021197394
0.057210714 -0.06749934 -0.090348065 0.09529853 0.08910498 -0.047329783 0.02076459 -0.11116797
0.008748069 -0.11605427 0.07065132 -0.12389387 -0.030153185 0.11662467 -0.042347938 -0.07245575
0.21296743 0.10127934 0.045508888 0.23511332 0.1093577 -0.07600927 0.23073694 0.90253294
-0.061293136 -0.049295075 -0.008888558 0.1608071 0.20635928 0.025095973 0.27926728 0.28632128
0.2208193 0.16453582 0.06789671 0.22445196 0.1254445 0.2322622 0.20600283 0.19791366
0.07635122 -0.05976291 0.0858019 0.041754592 0.14656456 0.19367205 0.12015905 0.10582237
0.14972892 0.120435275 0.09278589 0.034363408 0.15335225 0.10708319 0.33083457 0.039132386
0.23972653 -0.0014292764 0.0032509565 -0.005550496 0.021545017 0.084295295 0.25510383 0.0595874
0.24042368 0.1254364 0.13220982 0.1047485 -0.005339036 0.08226938 0.20644319 0.08501453
0.20551671 0.1744934 -0.07509959 0.079778485 0.28307074 0.13540536 0.42228448 0.17178257
0.014768796 0.10479163 0.01990094 0.00033458267 -0.041145183 0.026361749 -0.13004494 -0.12471455
-0.014489412 -0.08669883 -0.08681297 -0.026770977 0.06422403 0.061864763 -0.049689516 -0.014554405
0.11604209 0.02151395 0.08500473 -0.054594647 -0.11748112 -0.06350767 0.0053546326 -0.03591503
-0.073917955 0.120204374 -0.12071575 -0.0026805701 0.044273365 -0.03919613 0.048670713 -0.0050901826
-0.080223106 -0.06796922 -0.061483398 -0.119698904 0.07790752 0.10905201 -0.064211756 0.0061784238
0.036220163 0.035392687 -0.06938116 -0.081356846 0.12168118 0.06665906 0.11123285 0.081220955
-0.009300515 0.08299728 -0.00957231 -0.0063040373 -0.054160565 0.09110133 -0.032074362 0.012613444
-0.09897005 0.038649533 -0.0524254 -0.033860195 -0.016765084 0.048667643 0.011332985 0.016509771

gcn_layers.1.linear.bias f4 [64]
00000000: 8ab6 c4bc eaaf e5bd 1883 253e 2c61 cdbb
00000010: bb0d ddbd 75b7 e83d 9aa2 bc3d 0c79 1b3b
00000020: 28de 99bd 5483 653d b955 073e dc86 e53d
00000030: 27ab a9bd 5885 b3bd 5c4a 493e b405 023c
00000040: 77a4 4c3d fa41 f1bd ca11 113e 4f39 5b3e
00000050: fbc8 733d da66 ce3d 549d f33d 89b1 3fbc
00000060: 7f3c eb3c 918d c33c d02d 59bc 1c9c 11bd
00000070: 9b9b 9f3c 6789 b63d 08fa 6ebd b3d2 333e
00000080: f2ea 9c3c efa9 8d3d 9c77 b13d e011 03bc
00000090: 8da4 a33d cdd7 dd3d 1e39 e43d 415a 553e
000000a0: 2586 393e d4ca df3d 79c4 8c3d 395f ad3d
000000b0: 7067 46bd ed75 acbd d1bd 3b3e 260f 093e
000000c0: 5a23 09be abf8 be3d c8a1 ef3d c63e 783c
000000d0: f240 e1bd 4429 fabc 9163 263e 09ca 563d
000000e0: fd0a 883a 779e f8bc 7c26 4abb 5169 fc3d
000000f0: 8881 773d e3a9 263d 8e63 d0bd dfd3 cf3d
-0.024012823 -0.112151936 0.1616329 -0.0062676873 -0.107936345 0.11363117 0.09210701 0.0023723273
-0.07513076 0.056033447 0.13216294 0.11207363 -0.08284598 -0.08765668 0.19657272 0.00793593
0.049961533 -0.11780162 0.14166942 0.2140858 0.05951784 0.10078211 0.11895242 -0.0117000425
0.02871537 0.023871215 -0.013255551 -0.035549268 0.019483378 0.08912926 -0.058343917 0.17560844
0.019155 0.06917178 0.08665392 -0.007999867 0.0799037 0.10832176 0.11143707 0.2083521
0.18117578 0.10927358 0.06873412 0.08465428 -0.04843849 -0.0842093 0.18334128 0.13384685
-0.13392392 0.093247734 0.11700779 0.015151685 -0.109987155 -0.030537255 0.16248919 0.05243877
0.0010379251 -0.030349 -0.0030845692 0.12324775 0.060426265 0.04068936 -0.101752385 0.10147833

property_head.0.weight f4 [32, 64]
00000000: 2438 19bd ca7a f2bd 806c a1bd 586d f83c
00000010: e824 d4bc 545b b93d 005c 1aba 82ca 9b3d
00000020: 203f d43d 6495 42bd 504a 283c c09a 1cbc
00000030: 1021 6abd f012 e9bd d098 78bd 94c3 823d
00000040: 20da c4bc 629c e1bd 3c8e 073d e8e5 3a3d
00000050: 0820 bc3c d2bc cf3d 2a2d c4bd e4fe 49bd
00000060: c04a edbb 06eb a8bd a492 2c3d d08c 00bd
00000070: 708e ee3d c05a 29bd 34f0 b4bd ae7b c43d
00000080: 84b1 fb3d 3a9d bc3d 1a18 c6bd d035 7dbd
00000090: 4814 713d 0c20 eb3d 1087 ae3d 5ce8 dabd
000000a0: 5060 2cbd 60b9 ecbb 9c49 7b3d 5641 b1bd
000000b0: 445d 4a3d 20ae efbc 5829 1e3d f867 a3bc
000000c0: 62b9 f73d f070 57bc d88c 45bd 104f a6bc
000000d0: 80c3 7cbd 66b4 d3bd 9e58 a53d ec43 9bbd
000000e0: 80e9 5ebd 06fa 83bd 8040 a7ba 0cd3 8f3d
000000f0: 0412 0abd 001e 3f3a 10c0 35bd 5e65 c83d
00000100: 49cc f1bb dadb b63d 2477 f13d 6020 a6bc
00000110: 8640 77bd 6cdd 0a3e 49e7 6d3e 7a15 123d
00000120: 90f8 cb3c b809 923e 38d3 813d 080c 503e
00000130: a3c9 473d a066 423c f72b 943e 0cc8 87bd
00000140: e8ea ab3d c012 7ebd 6675 743e f774 483e
00000150: 57e6 6b3e ebc1 b5bd 0dac 563e b321 94bd
00000160: 8940 b6bd 2ccb 5f3e 80f1 913a e7e4 92bc
00000170: ed2a 253c 70f3 813e c031 13bb 37f2 003e
00000180: b4a6 9d3e 3784 6dbd ade5 783e 4c97 d53d
00000190: 88c8 643e 9b78 df3c 138f 0c3e 9a34 d93d
000001a0: 53bf 453d 9c86 9abd 329b 71bd f6ed 7c3d
000001b0: d893 8cbd f8ba 5dbd 417f 023e b908 223e
000001c0: 5197 c1bd 9347 4f3e 2d84 853e 62c9 263e
000001d0: 6b96 103e e0de 9b3d 36ac 9e3e a80d a43d
000001e0: 5616 f03d a5c8 433e 1298 753e 2e81 043e
000001f0: ae8d 853e b58d 64bd c084 7cbc 266f e1bd
00000200: a5d8 b0bd 684d cd3d 506e f73d 2bf2 023e
00000210: b2a0 953d 3a62 bc3e 4571 293e d2a5 e43d
00000220: 5cfd d43d c03b 363e 5523 483e 6e50 a73e
00000230: b061 1ebd 00de 2fbd 5982 9d3e 8284 093e
00000240: 4603 e23b 805c a43a b6c6 9b3e 344d 453e
00000250: 826e b73e 8bdc bc3d 7a08 833e ca28 36bd
00000260: 17e7 003e ff9a 333e c8ad 80bd b329 50bc
00000270: 4c0c 5d3d ae80 b43d e085 ee3c 094a 643e
00000280: 7cdd 883e 98ca b0bb 8aa2 153e 8038 f4bc
00000290: 19eb 533e 5476 a03e e00c f93d 9571 903e
000002a0: acf0 a73e 8393 683d 6e16 70bd 35bf 873e
000002b0: 508d 4d3d 1f2c ae3d a5dc 863e 2698 1c3e
000002c0: c022 5a3d d3f3 2d3e 323f a63e e52d b13e
000002d0: 4249 c5bc 2616 9a3c 6b56 ba3e 4fab b2bb
000002e0: 4529 7e3e 9c09 263e 26fc 873e 8380 483e
000002f0: 8c63 cb3d 9b14 b7bd b8df 603d cb4d cabb
00000300: c388 163c 84b3 ab3d 4aad 2e3c e6cd e23d
00000310: f0b0 1c3d c882 03be c2c4 813d c5d0 02be
00000320: c03e 763d d433 d3bc ee38 09be ad9b 1fbd
00000330: 707f df3d 1892 69bd eb51 8fbd 880f 583d
00000340: b2ac 4d3c 80bd 4e3d 97d3 bcbd 19b3 6ebd
00000350: 1c93 c5bd 2715 553c 5f25 1d3c aaa0 a0bd
00000360: 9829 aabd 2364 2e3d 005a 263c 0075 d13c
00000370: d1a5 37bd 0ae7 00be 8a6d a43d 23f0 dc3d
00000380: 114d c63d 899c d7bd 13d2 98bd 2287 b9bd
00000390: cf76 c73d 8842 ad3d f7c1 93bd 6bcc d03b
000003a0: ed49 973d 67de a33d 330a 86bd 2815 81bd
000003b0: 44f4 c3bd 96e3 ecbd dc3b 4cbd 3ef0 5bbd
000003c0: 7648 883d 62dd b03d 984f 12bd 237c 243d
000003d0: 961a 6cbc 82e5 423d 1806 00be bacd 17bd
000003e0: 9131 6abd 4628 b13d f1cb 3d3d a673 113d
000003f0: 86b0 3e3d 5747 cabd 7813 c1bd 6e81 b3bd
-0.037407055 -0.118398264 -0.07882023 0.030325577 -0.025896505 0.090506226 -0.0005888343 0.07606985
0.10363603 -0.04750575 0.010271624 -0.00955838 -0.057160437 -0.11380565 -0.06069261 0.0638496
-0.024029791 -0.11016156 0.03309463 0.045629412 0.022964492 0.101434365 -0.09578927 -0.04931535
-0.007241577 -0.08247952 0.042132035 -0.03138429 0.116482615 -0.04134631 -0.088348776 0.095939025
0.12289718 0.09209676 -0.09672566 -0.061818898 0.058857232 0.11480722 0.08521855 -0.1068885
-0.04208404 -0.007224247 0.061349496 -0.0865504 0.04940535 -0.029257834 0.038613647 -0.019947037
0.12095906 -0.013149485 -0.048230022 -0.020301372 -0.06170988 -0.10337143 0.08073543 -0.075813144
-0.0544219 -0.064441726 -0.0012760311 0.07022676 -0.033708587 0.0007290542 -0.04437262 0.09784959
-0.007379089 0.08928652 0.117903024 -0.02027911 -0.06036427 0.13561028 0.2323276 0.035665013
0.024898797 0.2852304 0.06339115 0.2031709 0.04877628 0.011865288 0.28939793 -0.06629953
0.08394414 -0.0620296 0.23872909 0.19575869 0.23037086 -0.088748775 0.2096407 -0.0723299
-0.08899028 0.21854848 0.0011134595 -0.017931415 0.010081035 0.2538104 -0.0022460073 0.12592398
0.30791247 -0.057987418 0.24306364 0.10429248 0.22342122 0.027279189 0.13726453 0.10605736
0.048278164 -0.07545206 -0.058985896 0.061750375 -0.068641365 -0.054133385 0.12743856 0.1582364
-0.094526894 0.20242147 0.26077405 0.16287759 0.1411988 0.076108694 0.30990762 0.08010417
0.1172301 0.19119509 0.23983791 0.12939903 0.26084656 -0.055799205 -0.015412509 -0.11007528
-0.08635072 0.1002453 0.12081587 0.12787692 0.07306041 0.3679369 0.16547115 0.1116444
0.10399887 0.1779623 0.19544728 0.3267855 -0.03866738 -0.042936325 0.3076351 0.13429454
0.006897363 0.0012539774 0.30425042 0.19267732 0.35826498 0.09221753 0.25592405 -0.044472493
0.12588154 0.17539595 -0.06283146 -0.012705254 0.053966805 0.08813606 0.029116571 0.22293867
0.2673148 -0.005395245 0.14612785 -0.029812098 0.20695151 0.31340277 0.12160659 0.28211656
0.32800806 0.056781303 -0.05861514 0.26513067 0.050183594 0.08504509 0.26340213 0.15292415
0.053255796 0.16987543 0.3247009 0.34605327 -0.024082784 0.01880939 0.36394057 -0.0054525505
0.2482043 0.16214603 0.26559561 0.19580273 0.099310964 -0.08939477 0.054900855 -0.0061738244
0.00918788 0.08383849 0.0106614325 0.11074428 0.03825468 -0.12842858 0.06336357 -0.12774952
0.060118437 -0.02578155 -0.13400623 -0.038966823 0.10912979 -0.05702409 -0.069980465 0.052749187
0.012553381 0.05047369 -0.09220045 -0.05827627 -0.096471995 0.013005531 0.0095914295 -0.07843144
-0.08308715 0.042575967 0.010153294 0.025568485 -0.04483587 -0.12588134 0.080287054 0.1078799
0.09682668 -0.105279036 -0.074619435 -0.09058978 0.09739458 0.084599555 -0.0721473 0.006372025
0.07387147 0.08001404 -0.06544914 -0.06302863 -0.09568074 -0.11566846 -0.049861774 -0.05369591
0.06654446 0.086359754 -0.035720438 0.04015745 -0.014410635 0.047582157 -0.12502325 -0.03706143
-0.057176176 0.0865026 0.04633707 0.03551068 0.046555065 -0.09876888 -0.094275415 -0.08764921

property_head.0.bias f4 [32]
00000000: 465a efbd 219c 2f3e f6bd 353e 1991 2c3d
00000010: 2d5a f13d 3431 df3d 991a 63bd 60a2 f53c
00000020: 6a63 bf3c 252e 1a3d 4bc2 edbd 884b 7f3d
00000030: ffdc d4bd 1d3c 96bd 0a37 e43d e2ed 5b3d
00000040: 90a0 833c 2cb9 b83c 0331 8bbc 135f d03d
00000050: 158c 593d c4ed 793d ee96 ca3b 8fec 203e
00000060: 12c6 c13d af83 7c3c 0c08 a5bd b234 e6bb
00000070: 74b5 ea3d 6658 be3c 2b5e 2a3e 38f6 383e
-0.1168714 0.17149402 0.17748246 0.042130563 0.11784778 0.108980566 -0.055445287 0.029984653
0.023362834 0.037641663 -0.11609324 0.06232789 -0.10393714 -0.073356844 0.1114331 0.05369366
0.016067773 0.022549234 -0.016991144 0.10174384 0.05311211 0.061017767 0.006182543 0.1571524
0.09461607 0.015412255 -0.080581754 -0.0070253247 0.11460391 0.023235511 0.16637485 0.18062675

property_head.3.weight f4 [14, 32]
00000000: 6561 b73d ba8d b2be a486 87be a98a a33c
00000010: cc18 97be 1e92 263d 607f df3d 549a c3bd
00000020: c2cf 90be 1c25 a5be 1f72 7a3c 29ea c03d
00000030: d98d 153e 6aa0 12bc 8dc1 eb3d d6c1 bcbe
00000040: bbc9 7bbb b1a9 90be 5c31 96be 62af 1d3e
00000050: 4e8e c93d aa08 a9be ad2d b4be 0c66 9bbe
00000060: ea13 243d e9cc 9b3d 256a bb3d 51db 013e
00000070: 3c07 a1be bab7 283b 808a 9abe 085a a3be
00000080: 9823 e03a 73bb e93a d6cc 663a dbbf 403c
00000090: 7b7b c83a aebe 2e3e 9882 2abd c0d2 f43d
000000a0: 9cdb cb3a 58cd f43a 97e1 283e 2cee f4bc
000000b0: 6b5d e2bc 4e02 46bc fe27 233e 1163 b43a
000000c0: 4047 40bd 24b2 f63a 0ba8 f03a 0bac a03d
000000d0: 9fa7 243e 5c77 6a3a 0ea1 063b cb2f cf3a
000000e0: a9cc 1cbe c49c 06be 857f 46bd 46d8 dc3d
000000f0: 9a92 823a 9b01 8bba 6219 f23a 626d bb3a
00000100: bfd9 17bd 7a68 6538 1d85 8fb7 9544 81bd
00000110: 0ec0 2139 1697 673c d5ff e7bd c02d 0dbe
00000120: 3e11 71b7 51cd 2138 94f8 8f3d c829 7ebd
00000130: 7945 1ebe c914 45bd b75f 283e 6af7 4a38
00000140: e527 04be 631b 74b8 8205 aeb3 63ef 1a3d
00000150: 3391 4cbc ee44 c037 be95 1d37 222e 8537
00000160: 1706 463e aa58 2bbc 9017 ffbc 9de5 1a3e
00000170: 18bd 4b38 3acc f0bd 9e1e a035 7347 abb7
00000180: 354a 1abe 153e cbba 51d6 8aba 8a90 b7bd
00000190: 9049 d8ba 6b19 59bc 6b5e d8bc 80af 063e
000001a0: fae6 caba 38f8 fdba 094e 34be ec10 3dbe
000001b0: 5fac 083e 6fc0 21bd 7b34 b3bd b91e eeba
000001c0: 6e45 bd3c 402e f9ba 9273 ebba 9942 083e
000001d0: d5b3 143e 0135 e9ba 99c3 0bbb 55de c1ba
000001e0: c15a abbd a169 32bb f903 cb3d c4a4 b6bd
000001f0: 71e6 ecba 5d64 6ebd 4d36 ebba 9729 c7ba
00000200: a0a5 073e aae5 083a b8e5 4639 2ac4 123e
00000210: 8d4f 79b8 1941 13be 10af fdbd 325c 2b3b
00000220: 0e9e 263a 258c ec39 075b 1f3e 33ce 87bb
00000230: 0f11 2ebd 53a5 e93d ebb6 eabd 5749 4c39
00000240: 5c31 b23c 8d10 0d3a 548d d838 b069 d7bc
00000250: bf09 f13c c7c9 3c39 e2ef b839 d8da dd39
00000260: 70c5 033e 1d51 d83d 3d16 ddbc 813b d4bd
00000270: 0f32 e0b8 58a7 083e d900 d639 ffa4 0839
00000280: f8eb c53d 1345 993a baab 543a 1a4a 8dbd
00000290: e440 513a d5b8 ccbc 8704 503d 7b2a 2cbe
000002a0: b899 a03a aeb7 b13a 67b5 1bbe 0cae 27be
000002b0: daf8 7ebc 95c3 513d 463a 973c 8db8 7e3a
000002c0: d97f 9bbd f222 a33a 9c5c 9b3a b182 fcbd
000002d0: 3459 27bc de8e b93a 04da f83a 22d8 7d3a
000002e0: a43e 403e b7bf 233e 0d2c a2bd 9929 10be
000002f0: 380c 193a 5e17 533d 0304 723a 5ae7 793a
00000300: e584 5a3c 1408 bd3a dd4b 7c3a d238 913d
00000310: de93 c23a 4311 ab3d cc6c 1f3e c18f e1ba
00000320: bc85 c73a 7c84 ed3a 97ee c9bd 887d 043e
00000330: 6202 0a3e a2a5 4abd 897c 0d3e ec9e d93a
00000340: 83c4 acbd 5361 e33a f7cc d83a bab7 4dbb
00000350: 34c0 02be 16a7 d43a abed 033b 4498 b03a
00000360: debc 593c 1cc4 0a3e 7ddf 983d 905e 92bd
00000370: f033 e03a 4d85 51bd 326b dc3a 55ce ae3a
00000380: 5771 d6bc 5d4c f7b9 fff6 24b9 ea52 28bd
00000390: 18d3 0b39 b711 35be 7486 e93c 9f3b 2c3e
000003a0: 8910 24ba 8652 d8b9 4d9e 6dbd c46c 94bc
000003b0: 5eb4 21be d551 d3bd 62ee 353d 8924 0db9
000003c0: 2e77 d53d bd5e 0eba c048 59b8 26e1 d8bd
000003d0: 6e78 0ebe 9872 e7b8 9eb6 b2b9 151d c4b9
000003e0: fa26 3e3c 3705 db3d db0f bd3d ff6b ce3c
000003f0: 389e 4039 cc76 303d b47a cab9 e9a0 65b8
0.089541234 -0.34873754 -0.2646991 0.01996358 -0.29511106 0.040666692 0.10912967 -0.0955092
-0.28283507 -0.32254875 0.015285998 0.094196625 0.14604892 -0.0089493785 0.11511526 -0.36866635
-0.0038419801 -0.28254464 -0.29334533 0.15398934 0.098415956 -0.33014423 -0.35191098 -0.30351293
0.040058054 0.07607443 0.09151105 0.12681319 -0.31450832 0.0025744275 -0.30183792 -0.31904626
0.0017100452 0.0017832353 0.00088043266 0.011764492 0.0015295589 0.17064926 -0.04162845 0.1195426
0.001555312 0.001867692 0.16492306 -0.029898725 -0.027632436 -0.01208551 0.15933225 0.0013762434
-0.04694295 0.0018821401 0.0018360628 0.078453146 0.16079567 0.00089441775 0.0020542773 0.001580709
-0.15312447 -0.13145739 -0.048461456 0.107834384 0.0009961904 -0.0010605337 0.00184707 0.0014299566
-0.037072893 5.4695156e-05 -1.7108914e-05 -0.06311909 0.00015425702 0.014135143 -0.11328093 -0.13786983
-1.4368734e-05 3.8576607e-05 0.070298344 -0.062051564 -0.15456189 -0.048115525 0.16442762 4.8390975e-05
-0.12905844 -5.819964e-05 -8.103508e-08 0.037825953 -0.01248579 2.2920281e-05 9.392794e-06 1.5876318e-05
0.1933826 -0.010458151 -0.031139165 0.15126653 4.857508e-05 -0.11757703 1.192984e-06 -2.041806e-05
-0.1506737 -0.0015506173 -0.0010592436 -0.089631155 -0.0016501416 -0.013250689 -0.02641221 0.13152885
-0.0015480213 -0.0019376343 -0.17607893 -0.18463486 0.13347004 -0.03949016 -0.08750244 -0.0018167115
0.023104396 -0.0019010976 -0.001796352 0.13306655 0.14521725 -0.0017792286 -0.0021326302 -0.0014790992
-0.08366919 -0.0027223604 0.09912867 -0.08918145 -0.0018074048 -0.058201183 -0.001794526 -0.001519489
0.13246775 0.0005222211 0.00018968328 0.14332643 -5.9440314e-05 -0.14380302 -0.12386906 0.0026147482
0.00063559494 0.00045117844 0.15562068 -0.004144454 -0.042496737 0.11408486 -0.1146067 0.00019482277
0.021752052 0.00053811894 0.00010326007 -0.026295513 0.029423593 0.00018004245 0.00035273941 0.00042315456
0.12868285 0.10562346 -0.026988143 -0.10362912 -0.000106904765 0.13345087 0.00040817892 0.00013031437
0.09664148 0.0011693559 0.00081127475 -0.068988994 0.0007982387 -0.024990479 0.050785568 -0.1681308
0.0012252843 0.0013558769 -0.15205918 -0.16374987 -0.0155622605 0.051211912 0.018460404 0.0009716831
-0.075927444 0.0012446328 0.0011853161 -0.12329615 -0.010214139 0.0014156958 0.0018985872 0.00096833904
0.18773896 0.15991102 -0.07918558 -0.14078368 0.00058383076 0.051535957 0.0009232165 0.000953307
0.013337349 0.0014421963 0.00096243416 0.07090916 0.0014845093 0.08352902 0.15568846 -0.001720898
0.0015222351 0.0018121148 -0.098599605 0.12938511 0.13477471 -0.049474366 0.13817038 0.0016603149
-0.08435919 0.001734773 0.0016540576 -0.0031390027 -0.12768632 0.0016224112 0.0020130675 0.0013473113
0.013289658 0.13551372 0.07464502 -0.071469426 0.0017105322 -0.051152516 0.0016816615 0.0013336638
-0.026177092 -0.00047168406 -0.00015732272 -0.041094698 0.00013334712 -0.17682539 0.028506495 0.16819619
-0.00062585674 -0.00041260215 -0.058012296 -0.01811827 -0.15791461 -0.103183426 0.044416793 -0.00013460418
0.10423122 -0.0005430987 -5.1804585e-05 -0.10589819 -0.13913128 -0.00011036283 -0.00034086866 -0.000374057
0.011605972 0.10694354 0.0923154 0.02519798 0.00018369488 0.043082044 -0.00038619863 -5.4747714e-05

property_head.3.bias f4 [14]
00000000: 3594 e2bf 8938 333f 0a4f 623e 9b6d 93bf
00000010: eeb7 20bf 69d2 32bd 6e02 a53f 15e4 5e3f
00000020: ade2 96bf c173 40bf 0628 9abf 87bb 7dbd
00000030: ef27 973f d246 873f
-1.7701479 0.7000814 0.22100464 -1.1517824 -0.62780654 -0.043657694 1.2891366 0.87066776
-1.1787926 -0.75176626 -1.2043464 -0.061946418 1.1809062 1.0568488
